…
I1015 04:18:58.986793 22464 net.cpp:275] The NetState phase (0) differed from the phase (1) specified by a rule in layer data
I1015 04:18:58.986830 22464 net.cpp:275] The NetState phase (0) differed from the phase (1) specified by a rule in layer accuracy
I1015 04:18:58.987109 22464 net.cpp:39] Initializing net from parameters: 
name: "ClampCaffeNet"
layers {
  top: "data"
  top: "label"
  name: "data"
  type: IMAGE_DATA
  image_data_param {
    source: "data/clamp/train.txt"
    batch_size: 256
    new_height: 256
    new_width: 256
  }
  include {
    phase: TRAIN
  }
  transform_param {
    mirror: true
    crop_size: 227
    mean_file: "/homes/ad6813/data/controlpoint_mean_256-227.binaryproto"
  }
}
layers {
  bottom: "data"
  top: "conv1"
  name: "conv1"
  type: CONVOLUTION
  blobs_lr: 0
  blobs_lr: 0
  weight_decay: 0
  weight_decay: 0
  convolution_param {
    num_output: 96
    kernel_size: 11
    stride: 4
    weight_filler {
      type: "gaussian"
      std: 0.01
    }
    bias_filler {
      type: "constant"
      value: 0
    }
  }
}
layers {
  bottom: "conv1"
  top: "conv1"
  name: "relu1"
  type: RELU
}
layers {
  bottom: "conv1"
  top: "pool1"
  name: "pool1"
  type: POOLING
  pooling_param {
    pool: MAX
    kernel_size: 3
    stride: 2
  }
}
layers {
  bottom: "pool1"
  top: "norm1"
  name: "norm1"
  type: LRN
  lrn_param {
    local_size: 5
    alpha: 0.0001
    beta: 0.75
  }
}
layers {
  bottom: "norm1"
  top: "conv2"
  name: "conv2"
  type: CONVOLUTION
  blobs_lr: 0
  blobs_lr: 0
  weight_decay: 0
  weight_decay: 0
  convolution_param {
    num_output: 256
    pad: 2
    kernel_size: 5
    group: 2
    weight_filler {
      type: "gaussian"
      std: 0.01
    }
    bias_filler {
      type: "constant"
      value: 1
    }
  }
}
layers {
  bottom: "conv2"
  top: "conv2"
  name: "relu2"
  type: RELU
}
layers {
  bottom: "conv2"
  top: "pool2"
  name: "pool2"
  type: POOLING
  pooling_param {
    pool: MAX
    kernel_size: 3
    stride: 2
  }
}
layers {
  bottom: "pool2"
  top: "norm2"
  name: "norm2"
  type: LRN
  lrn_param {
    local_size: 5
    alpha: 0.0001
    beta: 0.75
  }
}
layers {
  bottom: "norm2"
  top: "conv3"
  name: "conv3"
  type: CONVOLUTION
  blobs_lr: 0
  blobs_lr: 0
  weight_decay: 0
  weight_decay: 0
  convolution_param {
    num_output: 384
    pad: 1
    kernel_size: 3
    weight_filler {
      type: "gaussian"
      std: 0.01
    }
    bias_filler {
      type: "constant"
      value: 0
    }
  }
}
layers {
  bottom: "conv3"
  top: "conv3"
  name: "relu3"
  type: RELU
}
layers {
  bottom: "conv3"
  top: "conv4"
  name: "conv4"
  type: CONVOLUTION
  blobs_lr: 0
  blobs_lr: 0
  weight_decay: 0
  weight_decay: 0
  convolution_param {
    num_output: 384
    pad: 1
    kernel_size: 3
    group: 2
    weight_filler {
      type: "gaussian"
      std: 0.01
    }
    bias_filler {
      type: "constant"
      value: 1
    }
  }
}
layers {
  bottom: "conv4"
  top: "conv4"
  name: "relu4"
  type: RELU
}
layers {
  bottom: "conv4"
  top: "conv5"
  name: "conv5"
  type: CONVOLUTION
  blobs_lr: 0
  blobs_lr: 0
  weight_decay: 0
  weight_decay: 0
  convolution_param {
    num_output: 256
    pad: 1
    kernel_size: 3
    group: 2
    weight_filler {
      type: "gaussian"
      std: 0.01
    }
    bias_filler {
      type: "constant"
      value: 1
    }
  }
}
layers {
  bottom: "conv5"
  top: "conv5"
  name: "relu5"
  type: RELU
}
layers {
  bottom: "conv5"
  top: "pool5"
  name: "pool5"
  type: POOLING
  pooling_param {
    pool: MAX
    kernel_size: 3
    stride: 2
  }
}
layers {
  bottom: "pool5"
  top: "fc6"
  name: "fc6"
  type: INNER_PRODUCT
  blobs_lr: 0
  blobs_lr: 0
  weight_decay: 0
  weight_decay: 0
  inner_product_param {
    num_output: 4096
    weight_filler {
      type: "gaussian"
      std: 0.005
    }
    bias_filler {
      type: "constant"
      value: 1
    }
  }
}
layers {
  bottom: "fc6"
  top: "fc6"
  name: "relu6"
  type: RELU
}
layers {
  bottom: "fc6"
  top: "fc6"
  name: "drop6"
  type: DROPOUT
  dropout_param {
    dropout_ratio: 0.5
  }
}
layers {
  bottom: "fc6"
  top: "fc7"
  name: "fc7"
  type: INNER_PRODUCT
  blobs_lr: 0
  blobs_lr: 0
  weight_decay: 0
  weight_decay: 0
  inner_product_param {
    num_output: 4096
    weight_filler {
      type: "gaussian"
      std: 0.005
    }
    bias_filler {
      type: "constant"
      value: 1
    }
  }
}
layers {
  bottom: "fc7"
  top: "fc7"
  name: "relu7"
  type: RELU
}
layers {
  bottom: "fc7"
  top: "fc7"
  name: "drop7"
  type: DROPOUT
  dropout_param {
    dropout_ratio: 0.5
  }
}
layers {
  bottom: "fc7"
  top: "fc8_clamp"
  name: "fc8_clamp"
  type: INNER_PRODUCT
  blobs_lr: 1
  blobs_lr: 2
  weight_decay: 1
  weight_decay: 0
  inner_product_param {
    num_output: 2
    weight_filler {
      type: "gaussian"
      std: 0.01
    }
    bias_filler {
      type: "constant"
      value: 0
    }
  }
}
layers {
  bottom: "fc8_clamp"
  bottom: "label"
  name: "loss"
  type: SOFTMAX_LOSS
}
state {
  phase: TRAIN
}
I1015 04:18:58.987256 22464 net.cpp:67] Creating Layer data
I1015 04:18:58.987269 22464 net.cpp:356] data -> data
I1015 04:18:58.987292 22464 net.cpp:356] data -> label
I1015 04:18:58.987315 22464 net.cpp:96] Setting up data
I1015 04:18:58.987325 22464 image_data_layer.cpp:30] Opening file data/clamp/train.txt
I1015 04:18:59.001204 22464 image_data_layer.cpp:45] A total of 23495 images.
I1015 04:18:59.007966 22464 image_data_layer.cpp:73] output data size: 256,3,227,227
I1015 04:18:59.008007 22464 base_data_layer.cpp:36] Loading mean file from/homes/ad6813/data/controlpoint_mean_256-227.binaryproto
I1015 04:18:59.038288 22464 net.cpp:103] Top shape: 256 3 227 227 (39574272)
I1015 04:18:59.038321 22464 net.cpp:103] Top shape: 256 1 1 1 (256)
I1015 04:18:59.038346 22464 net.cpp:67] Creating Layer conv1
I1015 04:18:59.038352 22464 net.cpp:394] conv1 <- data
I1015 04:18:59.038370 22464 net.cpp:356] conv1 -> conv1
I1015 04:18:59.038386 22464 net.cpp:96] Setting up conv1
I1015 04:18:59.039839 22464 net.cpp:103] Top shape: 256 96 55 55 (74342400)
I1015 04:18:59.039870 22464 net.cpp:67] Creating Layer relu1
I1015 04:18:59.039877 22464 net.cpp:394] relu1 <- conv1
I1015 04:18:59.039885 22464 net.cpp:345] relu1 -> conv1 (in-place)
I1015 04:18:59.039893 22464 net.cpp:96] Setting up relu1
I1015 04:18:59.039903 22464 net.cpp:103] Top shape: 256 96 55 55 (74342400)
I1015 04:18:59.039911 22464 net.cpp:67] Creating Layer pool1
I1015 04:18:59.039916 22464 net.cpp:394] pool1 <- conv1
I1015 04:18:59.039922 22464 net.cpp:356] pool1 -> pool1
I1015 04:18:59.039930 22464 net.cpp:96] Setting up pool1
I1015 04:18:59.039945 22464 net.cpp:103] Top shape: 256 96 27 27 (17915904)
I1015 04:18:59.039957 22464 net.cpp:67] Creating Layer norm1
I1015 04:18:59.039965 22464 net.cpp:394] norm1 <- pool1
I1015 04:18:59.039973 22464 net.cpp:356] norm1 -> norm1
I1015 04:18:59.039989 22464 net.cpp:96] Setting up norm1
I1015 04:18:59.040006 22464 net.cpp:103] Top shape: 256 96 27 27 (17915904)
I1015 04:18:59.040030 22464 net.cpp:67] Creating Layer conv2
I1015 04:18:59.040042 22464 net.cpp:394] conv2 <- norm1
I1015 04:18:59.040057 22464 net.cpp:356] conv2 -> conv2
I1015 04:18:59.040082 22464 net.cpp:96] Setting up conv2
I1015 04:18:59.052127 22464 net.cpp:103] Top shape: 256 256 27 27 (47775744)
I1015 04:18:59.052160 22464 net.cpp:67] Creating Layer relu2
I1015 04:18:59.052170 22464 net.cpp:394] relu2 <- conv2
I1015 04:18:59.052184 22464 net.cpp:345] relu2 -> conv2 (in-place)
I1015 04:18:59.052199 22464 net.cpp:96] Setting up relu2
I1015 04:18:59.052208 22464 net.cpp:103] Top shape: 256 256 27 27 (47775744)
I1015 04:18:59.052222 22464 net.cpp:67] Creating Layer pool2
I1015 04:18:59.052245 22464 net.cpp:394] pool2 <- conv2
I1015 04:18:59.052259 22464 net.cpp:356] pool2 -> pool2
I1015 04:18:59.052284 22464 net.cpp:96] Setting up pool2
I1015 04:18:59.052296 22464 net.cpp:103] Top shape: 256 256 13 13 (11075584)
I1015 04:18:59.052312 22464 net.cpp:67] Creating Layer norm2
I1015 04:18:59.052361 22464 net.cpp:394] norm2 <- pool2
I1015 04:18:59.052384 22464 net.cpp:356] norm2 -> norm2
I1015 04:18:59.052407 22464 net.cpp:96] Setting up norm2
I1015 04:18:59.052423 22464 net.cpp:103] Top shape: 256 256 13 13 (11075584)
I1015 04:18:59.052440 22464 net.cpp:67] Creating Layer conv3
I1015 04:18:59.052460 22464 net.cpp:394] conv3 <- norm2
I1015 04:18:59.052476 22464 net.cpp:356] conv3 -> conv3
I1015 04:18:59.052501 22464 net.cpp:96] Setting up conv3
I1015 04:18:59.087363 22464 net.cpp:103] Top shape: 256 384 13 13 (16613376)
I1015 04:18:59.087414 22464 net.cpp:67] Creating Layer relu3
I1015 04:18:59.087425 22464 net.cpp:394] relu3 <- conv3
I1015 04:18:59.087440 22464 net.cpp:345] relu3 -> conv3 (in-place)
I1015 04:18:59.087457 22464 net.cpp:96] Setting up relu3
I1015 04:18:59.087467 22464 net.cpp:103] Top shape: 256 384 13 13 (16613376)
I1015 04:18:59.087483 22464 net.cpp:67] Creating Layer conv4
I1015 04:18:59.087493 22464 net.cpp:394] conv4 <- conv3
I1015 04:18:59.087509 22464 net.cpp:356] conv4 -> conv4
I1015 04:18:59.087525 22464 net.cpp:96] Setting up conv4
I1015 04:18:59.113996 22464 net.cpp:103] Top shape: 256 384 13 13 (16613376)
I1015 04:18:59.114039 22464 net.cpp:67] Creating Layer relu4
I1015 04:18:59.114051 22464 net.cpp:394] relu4 <- conv4
I1015 04:18:59.114065 22464 net.cpp:345] relu4 -> conv4 (in-place)
I1015 04:18:59.114081 22464 net.cpp:96] Setting up relu4
I1015 04:18:59.114091 22464 net.cpp:103] Top shape: 256 384 13 13 (16613376)
I1015 04:18:59.114107 22464 net.cpp:67] Creating Layer conv5
I1015 04:18:59.114117 22464 net.cpp:394] conv5 <- conv4
I1015 04:18:59.114132 22464 net.cpp:356] conv5 -> conv5
I1015 04:18:59.114150 22464 net.cpp:96] Setting up conv5
I1015 04:18:59.131652 22464 net.cpp:103] Top shape: 256 256 13 13 (11075584)
I1015 04:18:59.131693 22464 net.cpp:67] Creating Layer relu5
I1015 04:18:59.131705 22464 net.cpp:394] relu5 <- conv5
I1015 04:18:59.131732 22464 net.cpp:345] relu5 -> conv5 (in-place)
I1015 04:18:59.131753 22464 net.cpp:96] Setting up relu5
I1015 04:18:59.131767 22464 net.cpp:103] Top shape: 256 256 13 13 (11075584)
I1015 04:18:59.131783 22464 net.cpp:67] Creating Layer pool5
I1015 04:18:59.131793 22464 net.cpp:394] pool5 <- conv5
I1015 04:18:59.131817 22464 net.cpp:356] pool5 -> pool5
I1015 04:18:59.131836 22464 net.cpp:96] Setting up pool5
I1015 04:18:59.131862 22464 net.cpp:103] Top shape: 256 256 6 6 (2359296)
I1015 04:18:59.131889 22464 net.cpp:67] Creating Layer fc6
I1015 04:18:59.131909 22464 net.cpp:394] fc6 <- pool5
I1015 04:18:59.131927 22464 net.cpp:356] fc6 -> fc6
I1015 04:18:59.131947 22464 net.cpp:96] Setting up fc6
I1015 04:19:00.603947 22464 net.cpp:103] Top shape: 256 4096 1 1 (1048576)
I1015 04:19:00.603996 22464 net.cpp:67] Creating Layer relu6
I1015 04:19:00.604008 22464 net.cpp:394] relu6 <- fc6
I1015 04:19:00.604022 22464 net.cpp:345] relu6 -> fc6 (in-place)
I1015 04:19:00.604038 22464 net.cpp:96] Setting up relu6
I1015 04:19:00.604050 22464 net.cpp:103] Top shape: 256 4096 1 1 (1048576)
I1015 04:19:00.604068 22464 net.cpp:67] Creating Layer drop6
I1015 04:19:00.604079 22464 net.cpp:394] drop6 <- fc6
I1015 04:19:00.604094 22464 net.cpp:345] drop6 -> fc6 (in-place)
I1015 04:19:00.604107 22464 net.cpp:96] Setting up drop6
I1015 04:19:00.604123 22464 net.cpp:103] Top shape: 256 4096 1 1 (1048576)
I1015 04:19:00.604156 22464 net.cpp:67] Creating Layer fc7
I1015 04:19:00.604167 22464 net.cpp:394] fc7 <- fc6
I1015 04:19:00.604183 22464 net.cpp:356] fc7 -> fc7
I1015 04:19:00.604208 22464 net.cpp:96] Setting up fc7
I1015 04:19:01.257345 22464 net.cpp:103] Top shape: 256 4096 1 1 (1048576)
I1015 04:19:01.257396 22464 net.cpp:67] Creating Layer relu7
I1015 04:19:01.257408 22464 net.cpp:394] relu7 <- fc7
I1015 04:19:01.257439 22464 net.cpp:345] relu7 -> fc7 (in-place)
I1015 04:19:01.257457 22464 net.cpp:96] Setting up relu7
I1015 04:19:01.257467 22464 net.cpp:103] Top shape: 256 4096 1 1 (1048576)
I1015 04:19:01.257488 22464 net.cpp:67] Creating Layer drop7
I1015 04:19:01.257499 22464 net.cpp:394] drop7 <- fc7
I1015 04:19:01.257513 22464 net.cpp:345] drop7 -> fc7 (in-place)
I1015 04:19:01.257529 22464 net.cpp:96] Setting up drop7
I1015 04:19:01.257550 22464 net.cpp:103] Top shape: 256 4096 1 1 (1048576)
I1015 04:19:01.257577 22464 net.cpp:67] Creating Layer fc8_clamp
I1015 04:19:01.257589 22464 net.cpp:394] fc8_clamp <- fc7
I1015 04:19:01.257609 22464 net.cpp:356] fc8_clamp -> fc8_clamp
I1015 04:19:01.257637 22464 net.cpp:96] Setting up fc8_clamp
I1015 04:19:01.257998 22464 net.cpp:103] Top shape: 256 2 1 1 (512)
I1015 04:19:01.258023 22464 net.cpp:67] Creating Layer loss
I1015 04:19:01.258039 22464 net.cpp:394] loss <- fc8_clamp
I1015 04:19:01.258051 22464 net.cpp:394] loss <- label
I1015 04:19:01.258070 22464 net.cpp:356] loss -> (automatic)
I1015 04:19:01.258085 22464 net.cpp:96] Setting up loss
I1015 04:19:01.258113 22464 net.cpp:103] Top shape: 1 1 1 1 (1)
I1015 04:19:01.258126 22464 net.cpp:109]     with loss weight 1
I1015 04:19:01.258216 22464 net.cpp:170] loss needs backward computation.
I1015 04:19:01.258229 22464 net.cpp:170] fc8_clamp needs backward computation.
I1015 04:19:01.258245 22464 net.cpp:172] drop7 does not need backward computation.
I1015 04:19:01.258255 22464 net.cpp:172] relu7 does not need backward computation.
I1015 04:19:01.258263 22464 net.cpp:172] fc7 does not need backward computation.
…
I1015 04:19:01.259516 22464 solver.cpp:151] Creating test net (#0) specified by net file: task/clamp/train_val.prototxt
I1015 04:19:01.259588 22464 net.cpp:275] The NetState phase (1) differed from the phase (0) specified by a rule in layer data
I1015 04:19:01.259881 22464 net.cpp:39] Initializing net from parameters: 
name: "ClampCaffeNet"
layers {
  top: "data"
  top: "label"
  name: "data"
  type: IMAGE_DATA
  image_data_param {
    source: "data/clamp/val.txt"
    batch_size: 251
    new_height: 256
    new_width: 256
  }
  include {
    phase: TEST
  }
  transform_param {
    mirror: false
    crop_size: 227
    mean_file: "/homes/ad6813/data/controlpoint_mean_256-227.binaryproto"
  }
}
layers {
  bottom: "data"
  top: "conv1"
  name: "conv1"
  type: CONVOLUTION
  blobs_lr: 0
  blobs_lr: 0
  weight_decay: 0
  weight_decay: 0
  convolution_param {
    num_output: 96
    kernel_size: 11
    stride: 4
    weight_filler {
      type: "gaussian"
      std: 0.01
    }
    bias_filler {
      type: "constant"
      value: 0
    }
  }
}
layers {
  bottom: "conv1"
  top: "conv1"
  name: "relu1"
  type: RELU
}
layers {
  bottom: "conv1"
  top: "pool1"
  name: "pool1"
  type: POOLING
  pooling_param {
    pool: MAX
    kernel_size: 3
    stride: 2
  }
}
layers {
  bottom: "pool1"
  top: "norm1"
  name: "norm1"
  type: LRN
  lrn_param {
    local_size: 5
    alpha: 0.0001
    beta: 0.75
  }
}
layers {
  bottom: "norm1"
  top: "conv2"
  name: "conv2"
  type: CONVOLUTION
  blobs_lr: 0
  blobs_lr: 0
  weight_decay: 0
  weight_decay: 0
  convolution_param {
    num_output: 256
    pad: 2
    kernel_size: 5
    group: 2
    weight_filler {
      type: "gaussian"
      std: 0.01
    }
    bias_filler {
      type: "constant"
      value: 1
    }
  }
}
layers {
  bottom: "conv2"
  top: "conv2"
  name: "relu2"
  type: RELU
}
layers {
  bottom: "conv2"
  top: "pool2"
  name: "pool2"
  type: POOLING
  pooling_param {
    pool: MAX
    kernel_size: 3
    stride: 2
  }
}
layers {
  bottom: "pool2"
  top: "norm2"
  name: "norm2"
  type: LRN
  lrn_param {
    local_size: 5
    alpha: 0.0001
    beta: 0.75
  }
}
layers {
  bottom: "norm2"
  top: "conv3"
  name: "conv3"
  type: CONVOLUTION
  blobs_lr: 0
  blobs_lr: 0
  weight_decay: 0
  weight_decay: 0
  convolution_param {
    num_output: 384
    pad: 1
    kernel_size: 3
    weight_filler {
      type: "gaussian"
      std: 0.01
    }
    bias_filler {
      type: "constant"
      value: 0
    }
  }
}
layers {
  bottom: "conv3"
  top: "conv3"
  name: "relu3"
  type: RELU
}
layers {
  bottom: "conv3"
  top: "conv4"
  name: "conv4"
  type: CONVOLUTION
  blobs_lr: 0
  blobs_lr: 0
  weight_decay: 0
  weight_decay: 0
  convolution_param {
    num_output: 384
    pad: 1
    kernel_size: 3
    group: 2
    weight_filler {
      type: "gaussian"
      std: 0.01
    }
    bias_filler {
      type: "constant"
      value: 1
    }
  }
}
layers {
  bottom: "conv4"
  top: "conv4"
  name: "relu4"
  type: RELU
}
layers {
  bottom: "conv4"
  top: "conv5"
  name: "conv5"
  type: CONVOLUTION
  blobs_lr: 0
  blobs_lr: 0
  weight_decay: 0
  weight_decay: 0
  convolution_param {
    num_output: 256
    pad: 1
    kernel_size: 3
    group: 2
    weight_filler {
      type: "gaussian"
      std: 0.01
    }
    bias_filler {
      type: "constant"
      value: 1
    }
  }
}
layers {
  bottom: "conv5"
  top: "conv5"
  name: "relu5"
  type: RELU
}
layers {
  bottom: "conv5"
  top: "pool5"
  name: "pool5"
  type: POOLING
  pooling_param {
    pool: MAX
    kernel_size: 3
    stride: 2
  }
}
layers {
  bottom: "pool5"
  top: "fc6"
  name: "fc6"
  type: INNER_PRODUCT
  blobs_lr: 0
  blobs_lr: 0
  weight_decay: 0
  weight_decay: 0
  inner_product_param {
    num_output: 4096
    weight_filler {
      type: "gaussian"
      std: 0.005
    }
    bias_filler {
      type: "constant"
      value: 1
    }
  }
}
layers {
  bottom: "fc6"
  top: "fc6"
  name: "relu6"
  type: RELU
}
layers {
  bottom: "fc6"
  top: "fc6"
  name: "drop6"
  type: DROPOUT
  dropout_param {
    dropout_ratio: 0.5
  }
}
layers {
  bottom: "fc6"
  top: "fc7"
  name: "fc7"
  type: INNER_PRODUCT
  blobs_lr: 0
  blobs_lr: 0
  weight_decay: 0
  weight_decay: 0
  inner_product_param {
    num_output: 4096
    weight_filler {
      type: "gaussian"
      std: 0.005
    }
    bias_filler {
      type: "constant"
      value: 1
    }
  }
}
layers {
  bottom: "fc7"
  top: "fc7"
  name: "relu7"
  type: RELU
}
layers {
  bottom: "fc7"
  top: "fc7"
  name: "drop7"
  type: DROPOUT
  dropout_param {
    dropout_ratio: 0.5
  }
}
layers {
  bottom: "fc7"
  top: "fc8_clamp"
  name: "fc8_clamp"
  type: INNER_PRODUCT
  blobs_lr: 1
  blobs_lr: 2
  weight_decay: 1
  weight_decay: 0
  inner_product_param {
    num_output: 2
    weight_filler {
      type: "gaussian"
      std: 0.01
    }
    bias_filler {
      type: "constant"
      value: 0
    }
  }
}
layers {
  bottom: "fc8_clamp"
  bottom: "label"
  name: "loss"
  type: SOFTMAX_LOSS
}
layers {
  bottom: "fc8_clamp"
  bottom: "label"
  top: "accuracy"
  name: "accuracy"
  type: ACCURACY
  include {
    phase: TEST
  }
}
state {
  phase: TEST
}
I1015 04:19:01.260202 22464 net.cpp:67] Creating Layer data
I1015 04:19:01.260221 22464 net.cpp:356] data -> data
I1015 04:19:01.260249 22464 net.cpp:356] data -> label
I1015 04:19:01.260267 22464 net.cpp:96] Setting up data
I1015 04:19:01.260284 22464 image_data_layer.cpp:30] Opening file data/clamp/val.txt
I1015 04:19:01.262522 22464 image_data_layer.cpp:45] A total of 2006 images.
I1015 04:19:01.265090 22464 image_data_layer.cpp:73] output data size: 251,3,227,227
I1015 04:19:01.265118 22464 base_data_layer.cpp:36] Loading mean file from/homes/ad6813/data/controlpoint_mean_256-227.binaryproto
I1015 04:19:01.293922 22464 net.cpp:103] Top shape: 251 3 227 227 (38801337)
I1015 04:19:01.293958 22464 net.cpp:103] Top shape: 251 1 1 1 (251)
I1015 04:19:01.293979 22464 net.cpp:67] Creating Layer label_data_1_split
I1015 04:19:01.293990 22464 net.cpp:394] label_data_1_split <- label
I1015 04:19:01.294005 22464 net.cpp:356] label_data_1_split -> label_data_1_split_0
I1015 04:19:01.294028 22464 net.cpp:356] label_data_1_split -> label_data_1_split_1
I1015 04:19:01.294047 22464 net.cpp:96] Setting up label_data_1_split
I1015 04:19:01.294075 22464 net.cpp:103] Top shape: 251 1 1 1 (251)
I1015 04:19:01.294088 22464 net.cpp:103] Top shape: 251 1 1 1 (251)
I1015 04:19:01.294106 22464 net.cpp:67] Creating Layer conv1
I1015 04:19:01.294116 22464 net.cpp:394] conv1 <- data
I1015 04:19:01.294133 22464 net.cpp:356] conv1 -> conv1
I1015 04:19:01.294168 22464 net.cpp:96] Setting up conv1
I1015 04:19:01.295696 22464 net.cpp:103] Top shape: 251 96 55 55 (72890400)
I1015 04:19:01.295728 22464 net.cpp:67] Creating Layer relu1
I1015 04:19:01.295743 22464 net.cpp:394] relu1 <- conv1
I1015 04:19:01.295758 22464 net.cpp:345] relu1 -> conv1 (in-place)
I1015 04:19:01.295773 22464 net.cpp:96] Setting up relu1
I1015 04:19:01.295783 22464 net.cpp:103] Top shape: 251 96 55 55 (72890400)
I1015 04:19:01.295799 22464 net.cpp:67] Creating Layer pool1
I1015 04:19:01.295814 22464 net.cpp:394] pool1 <- conv1
I1015 04:19:01.295836 22464 net.cpp:356] pool1 -> pool1
I1015 04:19:01.295855 22464 net.cpp:96] Setting up pool1
I1015 04:19:01.295868 22464 net.cpp:103] Top shape: 251 96 27 27 (17565984)
I1015 04:19:01.295891 22464 net.cpp:67] Creating Layer norm1
I1015 04:19:01.295900 22464 net.cpp:394] norm1 <- pool1
I1015 04:19:01.295914 22464 net.cpp:356] norm1 -> norm1
I1015 04:19:01.295936 22464 net.cpp:96] Setting up norm1
I1015 04:19:01.295951 22464 net.cpp:103] Top shape: 251 96 27 27 (17565984)
I1015 04:19:01.295969 22464 net.cpp:67] Creating Layer conv2
I1015 04:19:01.295990 22464 net.cpp:394] conv2 <- norm1
I1015 04:19:01.296010 22464 net.cpp:356] conv2 -> conv2
I1015 04:19:01.296033 22464 net.cpp:96] Setting up conv2
I1015 04:19:01.309090 22464 net.cpp:103] Top shape: 251 256 27 27 (46842624)
I1015 04:19:01.309123 22464 net.cpp:67] Creating Layer relu2
I1015 04:19:01.309134 22464 net.cpp:394] relu2 <- conv2
I1015 04:19:01.309150 22464 net.cpp:345] relu2 -> conv2 (in-place)
I1015 04:19:01.309165 22464 net.cpp:96] Setting up relu2
I1015 04:19:01.309176 22464 net.cpp:103] Top shape: 251 256 27 27 (46842624)
I1015 04:19:01.309192 22464 net.cpp:67] Creating Layer pool2
I1015 04:19:01.309201 22464 net.cpp:394] pool2 <- conv2
I1015 04:19:01.309218 22464 net.cpp:356] pool2 -> pool2
I1015 04:19:01.309244 22464 net.cpp:96] Setting up pool2
I1015 04:19:01.309262 22464 net.cpp:103] Top shape: 251 256 13 13 (10859264)
I1015 04:19:01.309275 22464 net.cpp:67] Creating Layer norm2
I1015 04:19:01.309293 22464 net.cpp:394] norm2 <- pool2
I1015 04:19:01.309311 22464 net.cpp:356] norm2 -> norm2
I1015 04:19:01.309340 22464 net.cpp:96] Setting up norm2
I1015 04:19:01.309351 22464 net.cpp:103] Top shape: 251 256 13 13 (10859264)
I1015 04:19:01.309393 22464 net.cpp:67] Creating Layer conv3
I1015 04:19:01.309407 22464 net.cpp:394] conv3 <- norm2
I1015 04:19:01.309434 22464 net.cpp:356] conv3 -> conv3
I1015 04:19:01.309455 22464 net.cpp:96] Setting up conv3
I1015 04:19:01.347455 22464 net.cpp:103] Top shape: 251 384 13 13 (16288896)
I1015 04:19:01.347509 22464 net.cpp:67] Creating Layer relu3
I1015 04:19:01.347522 22464 net.cpp:394] relu3 <- conv3
I1015 04:19:01.347535 22464 net.cpp:345] relu3 -> conv3 (in-place)
I1015 04:19:01.347553 22464 net.cpp:96] Setting up relu3
I1015 04:19:01.347563 22464 net.cpp:103] Top shape: 251 384 13 13 (16288896)
I1015 04:19:01.347579 22464 net.cpp:67] Creating Layer conv4
I1015 04:19:01.347589 22464 net.cpp:394] conv4 <- conv3
I1015 04:19:01.347611 22464 net.cpp:356] conv4 -> conv4
I1015 04:19:01.347633 22464 net.cpp:96] Setting up conv4
I1015 04:19:01.376097 22464 net.cpp:103] Top shape: 251 384 13 13 (16288896)
I1015 04:19:01.376140 22464 net.cpp:67] Creating Layer relu4
I1015 04:19:01.376152 22464 net.cpp:394] relu4 <- conv4
I1015 04:19:01.376170 22464 net.cpp:345] relu4 -> conv4 (in-place)
I1015 04:19:01.376188 22464 net.cpp:96] Setting up relu4
I1015 04:19:01.376199 22464 net.cpp:103] Top shape: 251 384 13 13 (16288896)
I1015 04:19:01.376214 22464 net.cpp:67] Creating Layer conv5
I1015 04:19:01.376224 22464 net.cpp:394] conv5 <- conv4
I1015 04:19:01.376242 22464 net.cpp:356] conv5 -> conv5
I1015 04:19:01.376260 22464 net.cpp:96] Setting up conv5
I1015 04:19:01.395200 22464 net.cpp:103] Top shape: 251 256 13 13 (10859264)
I1015 04:19:01.395237 22464 net.cpp:67] Creating Layer relu5
I1015 04:19:01.395248 22464 net.cpp:394] relu5 <- conv5
I1015 04:19:01.395265 22464 net.cpp:345] relu5 -> conv5 (in-place)
I1015 04:19:01.395282 22464 net.cpp:96] Setting up relu5
I1015 04:19:01.395292 22464 net.cpp:103] Top shape: 251 256 13 13 (10859264)
I1015 04:19:01.395311 22464 net.cpp:67] Creating Layer pool5
I1015 04:19:01.395324 22464 net.cpp:394] pool5 <- conv5
I1015 04:19:01.395339 22464 net.cpp:356] pool5 -> pool5
I1015 04:19:01.395364 22464 net.cpp:96] Setting up pool5
I1015 04:19:01.395382 22464 net.cpp:103] Top shape: 251 256 6 6 (2313216)
I1015 04:19:01.395409 22464 net.cpp:67] Creating Layer fc6
I1015 04:19:01.395426 22464 net.cpp:394] fc6 <- pool5
I1015 04:19:01.395440 22464 net.cpp:356] fc6 -> fc6
I1015 04:19:01.395472 22464 net.cpp:96] Setting up fc6
I1015 04:19:02.866669 22464 net.cpp:103] Top shape: 251 4096 1 1 (1028096)
I1015 04:19:02.866720 22464 net.cpp:67] Creating Layer relu6
I1015 04:19:02.866732 22464 net.cpp:394] relu6 <- fc6
I1015 04:19:02.866752 22464 net.cpp:345] relu6 -> fc6 (in-place)
I1015 04:19:02.866770 22464 net.cpp:96] Setting up relu6
I1015 04:19:02.866780 22464 net.cpp:103] Top shape: 251 4096 1 1 (1028096)
I1015 04:19:02.866793 22464 net.cpp:67] Creating Layer drop6
I1015 04:19:02.866803 22464 net.cpp:394] drop6 <- fc6
I1015 04:19:02.866816 22464 net.cpp:345] drop6 -> fc6 (in-place)
I1015 04:19:02.866835 22464 net.cpp:96] Setting up drop6
I1015 04:19:02.866847 22464 net.cpp:103] Top shape: 251 4096 1 1 (1028096)
I1015 04:19:02.866863 22464 net.cpp:67] Creating Layer fc7
I1015 04:19:02.866888 22464 net.cpp:394] fc7 <- fc6
I1015 04:19:02.866904 22464 net.cpp:356] fc7 -> fc7
I1015 04:19:02.866930 22464 net.cpp:96] Setting up fc7
I1015 04:19:03.520225 22464 net.cpp:103] Top shape: 251 4096 1 1 (1028096)
I1015 04:19:03.520272 22464 net.cpp:67] Creating Layer relu7
I1015 04:19:03.520284 22464 net.cpp:394] relu7 <- fc7
I1015 04:19:03.520303 22464 net.cpp:345] relu7 -> fc7 (in-place)
I1015 04:19:03.520318 22464 net.cpp:96] Setting up relu7
I1015 04:19:03.520335 22464 net.cpp:103] Top shape: 251 4096 1 1 (1028096)
I1015 04:19:03.520349 22464 net.cpp:67] Creating Layer drop7
I1015 04:19:03.520359 22464 net.cpp:394] drop7 <- fc7
I1015 04:19:03.520373 22464 net.cpp:345] drop7 -> fc7 (in-place)
I1015 04:19:03.520388 22464 net.cpp:96] Setting up drop7
I1015 04:19:03.520400 22464 net.cpp:103] Top shape: 251 4096 1 1 (1028096)
I1015 04:19:03.520414 22464 net.cpp:67] Creating Layer fc8_clamp
I1015 04:19:03.520457 22464 net.cpp:394] fc8_clamp <- fc7
I1015 04:19:03.520486 22464 net.cpp:356] fc8_clamp -> fc8_clamp
I1015 04:19:03.520514 22464 net.cpp:96] Setting up fc8_clamp
I1015 04:19:03.520884 22464 net.cpp:103] Top shape: 251 2 1 1 (502)
I1015 04:19:03.520908 22464 net.cpp:67] Creating Layer fc8_clamp_fc8_clamp_0_split
I1015 04:19:03.520920 22464 net.cpp:394] fc8_clamp_fc8_clamp_0_split <- fc8_clamp
I1015 04:19:03.520937 22464 net.cpp:356] fc8_clamp_fc8_clamp_0_split -> fc8_clamp_fc8_clamp_0_split_0
I1015 04:19:03.520959 22464 net.cpp:356] fc8_clamp_fc8_clamp_0_split -> fc8_clamp_fc8_clamp_0_split_1
I1015 04:19:03.521021 22464 net.cpp:96] Setting up fc8_clamp_fc8_clamp_0_split
I1015 04:19:03.521042 22464 net.cpp:103] Top shape: 251 2 1 1 (502)
I1015 04:19:03.521052 22464 net.cpp:103] Top shape: 251 2 1 1 (502)
I1015 04:19:03.521071 22464 net.cpp:67] Creating Layer loss
I1015 04:19:03.521085 22464 net.cpp:394] loss <- fc8_clamp_fc8_clamp_0_split_0
I1015 04:19:03.521098 22464 net.cpp:394] loss <- label_data_1_split_0
I1015 04:19:03.521123 22464 net.cpp:356] loss -> (automatic)
I1015 04:19:03.521137 22464 net.cpp:96] Setting up loss
I1015 04:19:03.521162 22464 net.cpp:103] Top shape: 1 1 1 1 (1)
I1015 04:19:03.521173 22464 net.cpp:109]     with loss weight 1
I1015 04:19:03.521209 22464 net.cpp:67] Creating Layer accuracy
I1015 04:19:03.521224 22464 net.cpp:394] accuracy <- fc8_clamp_fc8_clamp_0_split_1
I1015 04:19:03.521235 22464 net.cpp:394] accuracy <- label_data_1_split_1
I1015 04:19:03.521253 22464 net.cpp:356] accuracy -> accuracy
I1015 04:19:03.521280 22464 net.cpp:96] Setting up accuracy
I1015 04:19:03.521296 22464 net.cpp:103] Top shape: 1 1 1 1 (1)
I1015 04:19:03.521317 22464 net.cpp:172] accuracy does not need backward computation.
I1015 04:19:03.521327 22464 net.cpp:170] loss needs backward computation.
I1015 04:19:03.521337 22464 net.cpp:170] fc8_clamp_fc8_clamp_0_split needs backward computation.
I1015 04:19:03.521347 22464 net.cpp:170] fc8_clamp needs backward computation.
I1015 04:19:03.521363 22464 net.cpp:172] drop7 does not need backward computation.
…
