…
I1014 05:54:44.869801 18782 net.cpp:275] The NetState phase (0) differed from the phase (1) specified by a rule in layer accuracy
I1014 05:54:44.869992 18782 net.cpp:39] Initializing net from parameters: 
name: "ClampdetCaffeNet"
layers {
  top: "data"
  top: "label"
  name: "data"
  type: IMAGE_DATA
  image_data_param {
    source: "data/clampdet/train.txt"
    batch_size: 256
    new_height: 256
    new_width: 256
  }
  include {
    phase: TRAIN
  }
  transform_param {
    mirror: true
    crop_size: 227
    mean_file: "/homes/ad6813/data/controlpoint_mean_256-227.binaryproto"
  }
}
layers {
  bottom: "data"
  top: "conv1"
  name: "conv1"
  type: CONVOLUTION
  blobs_lr: 0
  blobs_lr: 0
  weight_decay: 0
  weight_decay: 0
  convolution_param {
    num_output: 96
    kernel_size: 11
    stride: 4
    weight_filler {
      type: "gaussian"
      std: 0.01
    }
    bias_filler {
      type: "constant"
      value: 0
    }
  }
}
layers {
  bottom: "conv1"
  top: "conv1"
  name: "relu1"
  type: RELU
}
layers {
  bottom: "conv1"
  top: "pool1"
  name: "pool1"
  type: POOLING
  pooling_param {
    pool: MAX
    kernel_size: 3
    stride: 2
  }
}
layers {
  bottom: "pool1"
  top: "norm1"
  name: "norm1"
  type: LRN
  lrn_param {
    local_size: 5
    alpha: 0.0001
    beta: 0.75
  }
}
layers {
  bottom: "norm1"
  top: "conv2"
  name: "conv2"
  type: CONVOLUTION
  blobs_lr: 0
  blobs_lr: 0
  weight_decay: 0
  weight_decay: 0
  convolution_param {
    num_output: 256
    pad: 2
    kernel_size: 5
    group: 2
    weight_filler {
      type: "gaussian"
      std: 0.01
    }
    bias_filler {
      type: "constant"
      value: 1
    }
  }
}
layers {
  bottom: "conv2"
  top: "conv2"
  name: "relu2"
  type: RELU
}
layers {
  bottom: "conv2"
  top: "pool2"
  name: "pool2"
  type: POOLING
  pooling_param {
    pool: MAX
    kernel_size: 3
    stride: 2
  }
}
layers {
  bottom: "pool2"
  top: "norm2"
  name: "norm2"
  type: LRN
  lrn_param {
    local_size: 5
    alpha: 0.0001
    beta: 0.75
  }
}
layers {
  bottom: "norm2"
  top: "conv3"
  name: "conv3"
  type: CONVOLUTION
  blobs_lr: 0
  blobs_lr: 0
  weight_decay: 0
  weight_decay: 0
  convolution_param {
    num_output: 384
    pad: 1
    kernel_size: 3
    weight_filler {
      type: "gaussian"
      std: 0.01
    }
    bias_filler {
      type: "constant"
      value: 0
    }
  }
}
layers {
  bottom: "conv3"
  top: "conv3"
  name: "relu3"
  type: RELU
}
layers {
  bottom: "conv3"
  top: "conv4"
  name: "conv4"
  type: CONVOLUTION
  blobs_lr: 0
  blobs_lr: 0
  weight_decay: 0
  weight_decay: 0
  convolution_param {
    num_output: 384
    pad: 1
    kernel_size: 3
    group: 2
    weight_filler {
      type: "gaussian"
      std: 0.01
    }
    bias_filler {
      type: "constant"
      value: 1
    }
  }
}
layers {
  bottom: "conv4"
  top: "conv4"
  name: "relu4"
  type: RELU
}
layers {
  bottom: "conv4"
  top: "conv5"
  name: "conv5"
  type: CONVOLUTION
  blobs_lr: 0
  blobs_lr: 0
  weight_decay: 0
  weight_decay: 0
  convolution_param {
    num_output: 256
    pad: 1
    kernel_size: 3
    group: 2
    weight_filler {
      type: "gaussian"
      std: 0.01
    }
    bias_filler {
      type: "constant"
      value: 1
    }
  }
}
layers {
  bottom: "conv5"
  top: "conv5"
  name: "relu5"
  type: RELU
}
layers {
  bottom: "conv5"
  top: "pool5"
  name: "pool5"
  type: POOLING
  pooling_param {
    pool: MAX
    kernel_size: 3
    stride: 2
  }
}
layers {
  bottom: "pool5"
  top: "fc6"
  name: "fc6"
  type: INNER_PRODUCT
  blobs_lr: 0
  blobs_lr: 0
  weight_decay: 0
  weight_decay: 0
  inner_product_param {
    num_output: 4096
    weight_filler {
      type: "gaussian"
      std: 0.005
    }
    bias_filler {
      type: "constant"
      value: 1
    }
  }
}
layers {
  bottom: "fc6"
  top: "fc6"
  name: "relu6"
  type: RELU
}
layers {
  bottom: "fc6"
  top: "fc6"
  name: "drop6"
  type: DROPOUT
  dropout_param {
    dropout_ratio: 0.5
  }
}
layers {
  bottom: "fc6"
  top: "fc7"
  name: "fc7"
  type: INNER_PRODUCT
  blobs_lr: 0
  blobs_lr: 0
  weight_decay: 0
  weight_decay: 0
  inner_product_param {
    num_output: 4096
    weight_filler {
      type: "gaussian"
      std: 0.005
    }
    bias_filler {
      type: "constant"
      value: 1
    }
  }
}
layers {
  bottom: "fc7"
  top: "fc7"
  name: "relu7"
  type: RELU
}
layers {
  bottom: "fc7"
  top: "fc7"
  name: "drop7"
  type: DROPOUT
  dropout_param {
    dropout_ratio: 0.5
  }
}
layers {
  bottom: "fc7"
  top: "fc8_clampdet"
  name: "fc8_clampdet"
  type: INNER_PRODUCT
  blobs_lr: 1
  blobs_lr: 2
  weight_decay: 1
  weight_decay: 0
  inner_product_param {
    num_output: 2
    weight_filler {
      type: "gaussian"
      std: 0.01
    }
    bias_filler {
      type: "constant"
      value: 0
    }
  }
}
layers {
  bottom: "fc8_clampdet"
  bottom: "label"
  name: "loss"
  type: SOFTMAX_LOSS
}
state {
  phase: TRAIN
}
I1014 05:54:44.870103 18782 net.cpp:67] Creating Layer data
I1014 05:54:44.870113 18782 net.cpp:356] data -> data
I1014 05:54:44.870134 18782 net.cpp:356] data -> label
I1014 05:54:44.870147 18782 net.cpp:96] Setting up data
I1014 05:54:44.870153 18782 image_data_layer.cpp:30] Opening file data/clampdet/train.txt
I1014 05:54:44.870211 18782 image_data_layer.cpp:45] A total of 6 images.
I1014 05:54:44.876313 18782 image_data_layer.cpp:73] output data size: 256,3,227,227
I1014 05:54:44.876343 18782 base_data_layer.cpp:36] Loading mean file from/homes/ad6813/data/controlpoint_mean_256-227.binaryproto
I1014 05:54:44.896780 18782 net.cpp:103] Top shape: 256 3 227 227 (39574272)
I1014 05:54:44.896807 18782 net.cpp:103] Top shape: 256 1 1 1 (256)
I1014 05:54:44.896826 18782 net.cpp:67] Creating Layer conv1
I1014 05:54:44.896831 18782 net.cpp:394] conv1 <- data
I1014 05:54:44.896843 18782 net.cpp:356] conv1 -> conv1
I1014 05:54:44.896854 18782 net.cpp:96] Setting up conv1
I1014 05:54:44.897776 18782 net.cpp:103] Top shape: 256 96 55 55 (74342400)
I1014 05:54:44.897797 18782 net.cpp:67] Creating Layer relu1
I1014 05:54:44.897801 18782 net.cpp:394] relu1 <- conv1
I1014 05:54:44.897806 18782 net.cpp:345] relu1 -> conv1 (in-place)
I1014 05:54:44.897811 18782 net.cpp:96] Setting up relu1
I1014 05:54:44.897815 18782 net.cpp:103] Top shape: 256 96 55 55 (74342400)
I1014 05:54:44.897821 18782 net.cpp:67] Creating Layer pool1
I1014 05:54:44.897825 18782 net.cpp:394] pool1 <- conv1
I1014 05:54:44.897828 18782 net.cpp:356] pool1 -> pool1
I1014 05:54:44.897833 18782 net.cpp:96] Setting up pool1
I1014 05:54:44.897842 18782 net.cpp:103] Top shape: 256 96 27 27 (17915904)
I1014 05:54:44.897850 18782 net.cpp:67] Creating Layer norm1
I1014 05:54:44.897852 18782 net.cpp:394] norm1 <- pool1
I1014 05:54:44.897856 18782 net.cpp:356] norm1 -> norm1
I1014 05:54:44.897862 18782 net.cpp:96] Setting up norm1
I1014 05:54:44.897868 18782 net.cpp:103] Top shape: 256 96 27 27 (17915904)
I1014 05:54:44.897873 18782 net.cpp:67] Creating Layer conv2
I1014 05:54:44.897876 18782 net.cpp:394] conv2 <- norm1
I1014 05:54:44.897881 18782 net.cpp:356] conv2 -> conv2
I1014 05:54:44.897892 18782 net.cpp:96] Setting up conv2
I1014 05:54:44.905426 18782 net.cpp:103] Top shape: 256 256 27 27 (47775744)
I1014 05:54:44.905439 18782 net.cpp:67] Creating Layer relu2
I1014 05:54:44.905443 18782 net.cpp:394] relu2 <- conv2
I1014 05:54:44.905448 18782 net.cpp:345] relu2 -> conv2 (in-place)
I1014 05:54:44.905452 18782 net.cpp:96] Setting up relu2
I1014 05:54:44.905455 18782 net.cpp:103] Top shape: 256 256 27 27 (47775744)
I1014 05:54:44.905460 18782 net.cpp:67] Creating Layer pool2
I1014 05:54:44.905472 18782 net.cpp:394] pool2 <- conv2
I1014 05:54:44.905475 18782 net.cpp:356] pool2 -> pool2
I1014 05:54:44.905480 18782 net.cpp:96] Setting up pool2
I1014 05:54:44.905484 18782 net.cpp:103] Top shape: 256 256 13 13 (11075584)
I1014 05:54:44.905490 18782 net.cpp:67] Creating Layer norm2
I1014 05:54:44.905493 18782 net.cpp:394] norm2 <- pool2
I1014 05:54:44.905498 18782 net.cpp:356] norm2 -> norm2
I1014 05:54:44.905501 18782 net.cpp:96] Setting up norm2
I1014 05:54:44.905505 18782 net.cpp:103] Top shape: 256 256 13 13 (11075584)
I1014 05:54:44.905510 18782 net.cpp:67] Creating Layer conv3
I1014 05:54:44.905514 18782 net.cpp:394] conv3 <- norm2
I1014 05:54:44.905518 18782 net.cpp:356] conv3 -> conv3
I1014 05:54:44.905524 18782 net.cpp:96] Setting up conv3
I1014 05:54:44.927326 18782 net.cpp:103] Top shape: 256 384 13 13 (16613376)
I1014 05:54:44.927358 18782 net.cpp:67] Creating Layer relu3
I1014 05:54:44.927362 18782 net.cpp:394] relu3 <- conv3
I1014 05:54:44.927368 18782 net.cpp:345] relu3 -> conv3 (in-place)
I1014 05:54:44.927376 18782 net.cpp:96] Setting up relu3
I1014 05:54:44.927379 18782 net.cpp:103] Top shape: 256 384 13 13 (16613376)
I1014 05:54:44.927386 18782 net.cpp:67] Creating Layer conv4
I1014 05:54:44.927388 18782 net.cpp:394] conv4 <- conv3
I1014 05:54:44.927393 18782 net.cpp:356] conv4 -> conv4
I1014 05:54:44.927399 18782 net.cpp:96] Setting up conv4
I1014 05:54:44.943912 18782 net.cpp:103] Top shape: 256 384 13 13 (16613376)
I1014 05:54:44.943933 18782 net.cpp:67] Creating Layer relu4
I1014 05:54:44.943938 18782 net.cpp:394] relu4 <- conv4
I1014 05:54:44.943943 18782 net.cpp:345] relu4 -> conv4 (in-place)
I1014 05:54:44.943948 18782 net.cpp:96] Setting up relu4
I1014 05:54:44.943951 18782 net.cpp:103] Top shape: 256 384 13 13 (16613376)
I1014 05:54:44.943958 18782 net.cpp:67] Creating Layer conv5
I1014 05:54:44.943960 18782 net.cpp:394] conv5 <- conv4
I1014 05:54:44.943964 18782 net.cpp:356] conv5 -> conv5
I1014 05:54:44.943969 18782 net.cpp:96] Setting up conv5
I1014 05:54:44.954818 18782 net.cpp:103] Top shape: 256 256 13 13 (11075584)
I1014 05:54:44.954836 18782 net.cpp:67] Creating Layer relu5
I1014 05:54:44.954840 18782 net.cpp:394] relu5 <- conv5
I1014 05:54:44.954844 18782 net.cpp:345] relu5 -> conv5 (in-place)
I1014 05:54:44.954849 18782 net.cpp:96] Setting up relu5
I1014 05:54:44.954852 18782 net.cpp:103] Top shape: 256 256 13 13 (11075584)
I1014 05:54:44.954859 18782 net.cpp:67] Creating Layer pool5
I1014 05:54:44.954861 18782 net.cpp:394] pool5 <- conv5
I1014 05:54:44.954866 18782 net.cpp:356] pool5 -> pool5
I1014 05:54:44.954871 18782 net.cpp:96] Setting up pool5
I1014 05:54:44.954876 18782 net.cpp:103] Top shape: 256 256 6 6 (2359296)
I1014 05:54:44.954885 18782 net.cpp:67] Creating Layer fc6
I1014 05:54:44.954888 18782 net.cpp:394] fc6 <- pool5
I1014 05:54:44.954892 18782 net.cpp:356] fc6 -> fc6
I1014 05:54:44.954898 18782 net.cpp:96] Setting up fc6
I1014 05:54:45.869657 18782 net.cpp:103] Top shape: 256 4096 1 1 (1048576)
I1014 05:54:45.869704 18782 net.cpp:67] Creating Layer relu6
I1014 05:54:45.869710 18782 net.cpp:394] relu6 <- fc6
I1014 05:54:45.869719 18782 net.cpp:345] relu6 -> fc6 (in-place)
I1014 05:54:45.869726 18782 net.cpp:96] Setting up relu6
I1014 05:54:45.869730 18782 net.cpp:103] Top shape: 256 4096 1 1 (1048576)
I1014 05:54:45.869735 18782 net.cpp:67] Creating Layer drop6
I1014 05:54:45.869738 18782 net.cpp:394] drop6 <- fc6
I1014 05:54:45.869742 18782 net.cpp:345] drop6 -> fc6 (in-place)
I1014 05:54:45.869750 18782 net.cpp:96] Setting up drop6
I1014 05:54:45.869756 18782 net.cpp:103] Top shape: 256 4096 1 1 (1048576)
I1014 05:54:45.869761 18782 net.cpp:67] Creating Layer fc7
I1014 05:54:45.869765 18782 net.cpp:394] fc7 <- fc6
I1014 05:54:45.869771 18782 net.cpp:356] fc7 -> fc7
I1014 05:54:45.869776 18782 net.cpp:96] Setting up fc7
I1014 05:54:46.258829 18782 net.cpp:103] Top shape: 256 4096 1 1 (1048576)
I1014 05:54:46.258864 18782 net.cpp:67] Creating Layer relu7
I1014 05:54:46.258869 18782 net.cpp:394] relu7 <- fc7
I1014 05:54:46.258877 18782 net.cpp:345] relu7 -> fc7 (in-place)
I1014 05:54:46.258893 18782 net.cpp:96] Setting up relu7
I1014 05:54:46.258898 18782 net.cpp:103] Top shape: 256 4096 1 1 (1048576)
I1014 05:54:46.258906 18782 net.cpp:67] Creating Layer drop7
I1014 05:54:46.258909 18782 net.cpp:394] drop7 <- fc7
I1014 05:54:46.258913 18782 net.cpp:345] drop7 -> fc7 (in-place)
I1014 05:54:46.258919 18782 net.cpp:96] Setting up drop7
I1014 05:54:46.258921 18782 net.cpp:103] Top shape: 256 4096 1 1 (1048576)
I1014 05:54:46.258927 18782 net.cpp:67] Creating Layer fc8_clampdet
I1014 05:54:46.258930 18782 net.cpp:394] fc8_clampdet <- fc7
I1014 05:54:46.258936 18782 net.cpp:356] fc8_clampdet -> fc8_clampdet
I1014 05:54:46.258942 18782 net.cpp:96] Setting up fc8_clampdet
I1014 05:54:46.259169 18782 net.cpp:103] Top shape: 256 2 1 1 (512)
I1014 05:54:46.259181 18782 net.cpp:67] Creating Layer loss
I1014 05:54:46.259186 18782 net.cpp:394] loss <- fc8_clampdet
I1014 05:54:46.259189 18782 net.cpp:394] loss <- label
I1014 05:54:46.259196 18782 net.cpp:356] loss -> (automatic)
I1014 05:54:46.259202 18782 net.cpp:96] Setting up loss
I1014 05:54:46.259214 18782 net.cpp:103] Top shape: 1 1 1 1 (1)
I1014 05:54:46.259218 18782 net.cpp:109]     with loss weight 1
I1014 05:54:46.259253 18782 net.cpp:170] loss needs backward computation.
I1014 05:54:46.259259 18782 net.cpp:170] fc8_clampdet needs backward computation.
I1014 05:54:46.259263 18782 net.cpp:172] drop7 does not need backward computation.
I1014 05:54:46.259265 18782 net.cpp:172] relu7 does not need backward computation.
I1014 05:54:46.259268 18782 net.cpp:172] fc7 does not need backward computation.
…
I1014 05:54:46.260036 18782 solver.cpp:151] Creating test net (#0) specified by net file: task/clamp/train_val.prototxt
I1014 05:54:46.260071 18782 net.cpp:275] The NetState phase (1) differed from the phase (0) specified by a rule in layer data
I1014 05:54:46.260249 18782 net.cpp:39] Initializing net from parameters: 
name: "ClampdetCaffeNet"
layers {
  top: "data"
  top: "label"
  name: "data"
  type: IMAGE_DATA
  image_data_param {
    source: "data/clampdet/val.txt"
    batch_size: 251
    new_height: 256
    new_width: 256
  }
  include {
    phase: TEST
  }
  transform_param {
    mirror: false
    crop_size: 227
    mean_file: "/homes/ad6813/data/controlpoint_mean_256-227.binaryproto"
  }
}
layers {
  bottom: "data"
  top: "conv1"
  name: "conv1"
  type: CONVOLUTION
  blobs_lr: 0
  blobs_lr: 0
  weight_decay: 0
  weight_decay: 0
  convolution_param {
    num_output: 96
    kernel_size: 11
    stride: 4
    weight_filler {
      type: "gaussian"
      std: 0.01
    }
    bias_filler {
      type: "constant"
      value: 0
    }
  }
}
layers {
  bottom: "conv1"
  top: "conv1"
  name: "relu1"
  type: RELU
}
layers {
  bottom: "conv1"
  top: "pool1"
  name: "pool1"
  type: POOLING
  pooling_param {
    pool: MAX
    kernel_size: 3
    stride: 2
  }
}
layers {
  bottom: "pool1"
  top: "norm1"
  name: "norm1"
  type: LRN
  lrn_param {
    local_size: 5
    alpha: 0.0001
    beta: 0.75
  }
}
layers {
  bottom: "norm1"
  top: "conv2"
  name: "conv2"
  type: CONVOLUTION
  blobs_lr: 0
  blobs_lr: 0
  weight_decay: 0
  weight_decay: 0
  convolution_param {
    num_output: 256
    pad: 2
    kernel_size: 5
    group: 2
    weight_filler {
      type: "gaussian"
      std: 0.01
    }
    bias_filler {
      type: "constant"
      value: 1
    }
  }
}
layers {
  bottom: "conv2"
  top: "conv2"
  name: "relu2"
  type: RELU
}
layers {
  bottom: "conv2"
  top: "pool2"
  name: "pool2"
  type: POOLING
  pooling_param {
    pool: MAX
    kernel_size: 3
    stride: 2
  }
}
layers {
  bottom: "pool2"
  top: "norm2"
  name: "norm2"
  type: LRN
  lrn_param {
    local_size: 5
    alpha: 0.0001
    beta: 0.75
  }
}
layers {
  bottom: "norm2"
  top: "conv3"
  name: "conv3"
  type: CONVOLUTION
  blobs_lr: 0
  blobs_lr: 0
  weight_decay: 0
  weight_decay: 0
  convolution_param {
    num_output: 384
    pad: 1
    kernel_size: 3
    weight_filler {
      type: "gaussian"
      std: 0.01
    }
    bias_filler {
      type: "constant"
      value: 0
    }
  }
}
layers {
  bottom: "conv3"
  top: "conv3"
  name: "relu3"
  type: RELU
}
layers {
  bottom: "conv3"
  top: "conv4"
  name: "conv4"
  type: CONVOLUTION
  blobs_lr: 0
  blobs_lr: 0
  weight_decay: 0
  weight_decay: 0
  convolution_param {
    num_output: 384
    pad: 1
    kernel_size: 3
    group: 2
    weight_filler {
      type: "gaussian"
      std: 0.01
    }
    bias_filler {
      type: "constant"
      value: 1
    }
  }
}
layers {
  bottom: "conv4"
  top: "conv4"
  name: "relu4"
  type: RELU
}
layers {
  bottom: "conv4"
  top: "conv5"
  name: "conv5"
  type: CONVOLUTION
  blobs_lr: 0
  blobs_lr: 0
  weight_decay: 0
  weight_decay: 0
  convolution_param {
    num_output: 256
    pad: 1
    kernel_size: 3
    group: 2
    weight_filler {
      type: "gaussian"
      std: 0.01
    }
    bias_filler {
      type: "constant"
      value: 1
    }
  }
}
layers {
  bottom: "conv5"
  top: "conv5"
  name: "relu5"
  type: RELU
}
layers {
  bottom: "conv5"
  top: "pool5"
  name: "pool5"
  type: POOLING
  pooling_param {
    pool: MAX
    kernel_size: 3
    stride: 2
  }
}
layers {
  bottom: "pool5"
  top: "fc6"
  name: "fc6"
  type: INNER_PRODUCT
  blobs_lr: 0
  blobs_lr: 0
  weight_decay: 0
  weight_decay: 0
  inner_product_param {
    num_output: 4096
    weight_filler {
      type: "gaussian"
      std: 0.005
    }
    bias_filler {
      type: "constant"
      value: 1
    }
  }
}
layers {
  bottom: "fc6"
  top: "fc6"
  name: "relu6"
  type: RELU
}
layers {
  bottom: "fc6"
  top: "fc6"
  name: "drop6"
  type: DROPOUT
  dropout_param {
    dropout_ratio: 0.5
  }
}
layers {
  bottom: "fc6"
  top: "fc7"
  name: "fc7"
  type: INNER_PRODUCT
  blobs_lr: 0
  blobs_lr: 0
  weight_decay: 0
  weight_decay: 0
  inner_product_param {
    num_output: 4096
    weight_filler {
      type: "gaussian"
      std: 0.005
    }
    bias_filler {
      type: "constant"
      value: 1
    }
  }
}
layers {
  bottom: "fc7"
  top: "fc7"
  name: "relu7"
  type: RELU
}
layers {
  bottom: "fc7"
  top: "fc7"
  name: "drop7"
  type: DROPOUT
  dropout_param {
    dropout_ratio: 0.5
  }
}
layers {
  bottom: "fc7"
  top: "fc8_clampdet"
  name: "fc8_clampdet"
  type: INNER_PRODUCT
  blobs_lr: 1
  blobs_lr: 2
  weight_decay: 1
  weight_decay: 0
  inner_product_param {
    num_output: 2
    weight_filler {
      type: "gaussian"
      std: 0.01
    }
    bias_filler {
      type: "constant"
      value: 0
    }
  }
}
layers {
  bottom: "fc8_clampdet"
  bottom: "label"
  name: "loss"
  type: SOFTMAX_LOSS
}
layers {
  bottom: "fc8_clampdet"
  bottom: "label"
  top: "accuracy"
  name: "accuracy"
  type: ACCURACY
  include {
    phase: TEST
  }
}
state {
  phase: TEST
}
I1014 05:54:46.260375 18782 net.cpp:67] Creating Layer data
I1014 05:54:46.260383 18782 net.cpp:356] data -> data
I1014 05:54:46.260393 18782 net.cpp:356] data -> label
I1014 05:54:46.260401 18782 net.cpp:96] Setting up data
I1014 05:54:46.260406 18782 image_data_layer.cpp:30] Opening file data/clampdet/val.txt
I1014 05:54:46.260437 18782 image_data_layer.cpp:45] A total of 3 images.
I1014 05:54:46.263780 18782 image_data_layer.cpp:73] output data size: 251,3,227,227
I1014 05:54:46.263794 18782 base_data_layer.cpp:36] Loading mean file from/homes/ad6813/data/controlpoint_mean_256-227.binaryproto
I1014 05:54:46.282259 18782 net.cpp:103] Top shape: 251 3 227 227 (38801337)
I1014 05:54:46.282285 18782 net.cpp:103] Top shape: 251 1 1 1 (251)
I1014 05:54:46.282296 18782 net.cpp:67] Creating Layer label_data_1_split
I1014 05:54:46.282301 18782 net.cpp:394] label_data_1_split <- label
I1014 05:54:46.282307 18782 net.cpp:356] label_data_1_split -> label_data_1_split_0
I1014 05:54:46.282317 18782 net.cpp:356] label_data_1_split -> label_data_1_split_1
I1014 05:54:46.282322 18782 net.cpp:96] Setting up label_data_1_split
I1014 05:54:46.282373 18782 net.cpp:103] Top shape: 251 1 1 1 (251)
I1014 05:54:46.282385 18782 net.cpp:103] Top shape: 251 1 1 1 (251)
I1014 05:54:46.282395 18782 net.cpp:67] Creating Layer conv1
I1014 05:54:46.282400 18782 net.cpp:394] conv1 <- data
I1014 05:54:46.282407 18782 net.cpp:356] conv1 -> conv1
I1014 05:54:46.282415 18782 net.cpp:96] Setting up conv1
I1014 05:54:46.283282 18782 net.cpp:103] Top shape: 251 96 55 55 (72890400)
I1014 05:54:46.283296 18782 net.cpp:67] Creating Layer relu1
I1014 05:54:46.283301 18782 net.cpp:394] relu1 <- conv1
I1014 05:54:46.283305 18782 net.cpp:345] relu1 -> conv1 (in-place)
I1014 05:54:46.283313 18782 net.cpp:96] Setting up relu1
I1014 05:54:46.283319 18782 net.cpp:103] Top shape: 251 96 55 55 (72890400)
I1014 05:54:46.283329 18782 net.cpp:67] Creating Layer pool1
I1014 05:54:46.283335 18782 net.cpp:394] pool1 <- conv1
I1014 05:54:46.283349 18782 net.cpp:356] pool1 -> pool1
I1014 05:54:46.283359 18782 net.cpp:96] Setting up pool1
I1014 05:54:46.283365 18782 net.cpp:103] Top shape: 251 96 27 27 (17565984)
I1014 05:54:46.283371 18782 net.cpp:67] Creating Layer norm1
I1014 05:54:46.283376 18782 net.cpp:394] norm1 <- pool1
I1014 05:54:46.283380 18782 net.cpp:356] norm1 -> norm1
I1014 05:54:46.283386 18782 net.cpp:96] Setting up norm1
I1014 05:54:46.283391 18782 net.cpp:103] Top shape: 251 96 27 27 (17565984)
I1014 05:54:46.283398 18782 net.cpp:67] Creating Layer conv2
I1014 05:54:46.283402 18782 net.cpp:394] conv2 <- norm1
I1014 05:54:46.283407 18782 net.cpp:356] conv2 -> conv2
I1014 05:54:46.283414 18782 net.cpp:96] Setting up conv2
I1014 05:54:46.293541 18782 net.cpp:103] Top shape: 251 256 27 27 (46842624)
I1014 05:54:46.293557 18782 net.cpp:67] Creating Layer relu2
I1014 05:54:46.293563 18782 net.cpp:394] relu2 <- conv2
I1014 05:54:46.293571 18782 net.cpp:345] relu2 -> conv2 (in-place)
I1014 05:54:46.293578 18782 net.cpp:96] Setting up relu2
I1014 05:54:46.293586 18782 net.cpp:103] Top shape: 251 256 27 27 (46842624)
I1014 05:54:46.293597 18782 net.cpp:67] Creating Layer pool2
I1014 05:54:46.293606 18782 net.cpp:394] pool2 <- conv2
I1014 05:54:46.293617 18782 net.cpp:356] pool2 -> pool2
I1014 05:54:46.293632 18782 net.cpp:96] Setting up pool2
I1014 05:54:46.293642 18782 net.cpp:103] Top shape: 251 256 13 13 (10859264)
I1014 05:54:46.293653 18782 net.cpp:67] Creating Layer norm2
I1014 05:54:46.293659 18782 net.cpp:394] norm2 <- pool2
I1014 05:54:46.293664 18782 net.cpp:356] norm2 -> norm2
I1014 05:54:46.293670 18782 net.cpp:96] Setting up norm2
I1014 05:54:46.293681 18782 net.cpp:103] Top shape: 251 256 13 13 (10859264)
I1014 05:54:46.293689 18782 net.cpp:67] Creating Layer conv3
I1014 05:54:46.293692 18782 net.cpp:394] conv3 <- norm2
I1014 05:54:46.293699 18782 net.cpp:356] conv3 -> conv3
I1014 05:54:46.293704 18782 net.cpp:96] Setting up conv3
I1014 05:54:46.315536 18782 net.cpp:103] Top shape: 251 384 13 13 (16288896)
I1014 05:54:46.315568 18782 net.cpp:67] Creating Layer relu3
I1014 05:54:46.315574 18782 net.cpp:394] relu3 <- conv3
I1014 05:54:46.315580 18782 net.cpp:345] relu3 -> conv3 (in-place)
I1014 05:54:46.315587 18782 net.cpp:96] Setting up relu3
I1014 05:54:46.315592 18782 net.cpp:103] Top shape: 251 384 13 13 (16288896)
I1014 05:54:46.315598 18782 net.cpp:67] Creating Layer conv4
I1014 05:54:46.315601 18782 net.cpp:394] conv4 <- conv3
I1014 05:54:46.315606 18782 net.cpp:356] conv4 -> conv4
I1014 05:54:46.315613 18782 net.cpp:96] Setting up conv4
I1014 05:54:46.332065 18782 net.cpp:103] Top shape: 251 384 13 13 (16288896)
I1014 05:54:46.332083 18782 net.cpp:67] Creating Layer relu4
I1014 05:54:46.332087 18782 net.cpp:394] relu4 <- conv4
I1014 05:54:46.332093 18782 net.cpp:345] relu4 -> conv4 (in-place)
I1014 05:54:46.332098 18782 net.cpp:96] Setting up relu4
I1014 05:54:46.332101 18782 net.cpp:103] Top shape: 251 384 13 13 (16288896)
I1014 05:54:46.332108 18782 net.cpp:67] Creating Layer conv5
I1014 05:54:46.332109 18782 net.cpp:394] conv5 <- conv4
I1014 05:54:46.332118 18782 net.cpp:356] conv5 -> conv5
I1014 05:54:46.332124 18782 net.cpp:96] Setting up conv5
I1014 05:54:46.343119 18782 net.cpp:103] Top shape: 251 256 13 13 (10859264)
I1014 05:54:46.343138 18782 net.cpp:67] Creating Layer relu5
I1014 05:54:46.343142 18782 net.cpp:394] relu5 <- conv5
I1014 05:54:46.343149 18782 net.cpp:345] relu5 -> conv5 (in-place)
I1014 05:54:46.343154 18782 net.cpp:96] Setting up relu5
I1014 05:54:46.343158 18782 net.cpp:103] Top shape: 251 256 13 13 (10859264)
I1014 05:54:46.343164 18782 net.cpp:67] Creating Layer pool5
I1014 05:54:46.343168 18782 net.cpp:394] pool5 <- conv5
I1014 05:54:46.343173 18782 net.cpp:356] pool5 -> pool5
I1014 05:54:46.343178 18782 net.cpp:96] Setting up pool5
I1014 05:54:46.343183 18782 net.cpp:103] Top shape: 251 256 6 6 (2313216)
I1014 05:54:46.343189 18782 net.cpp:67] Creating Layer fc6
I1014 05:54:46.343193 18782 net.cpp:394] fc6 <- pool5
I1014 05:54:46.343197 18782 net.cpp:356] fc6 -> fc6
I1014 05:54:46.343204 18782 net.cpp:96] Setting up fc6
I1014 05:54:47.256937 18782 net.cpp:103] Top shape: 251 4096 1 1 (1028096)
I1014 05:54:47.256984 18782 net.cpp:67] Creating Layer relu6
I1014 05:54:47.256989 18782 net.cpp:394] relu6 <- fc6
I1014 05:54:47.256996 18782 net.cpp:345] relu6 -> fc6 (in-place)
I1014 05:54:47.257004 18782 net.cpp:96] Setting up relu6
I1014 05:54:47.257007 18782 net.cpp:103] Top shape: 251 4096 1 1 (1028096)
I1014 05:54:47.257012 18782 net.cpp:67] Creating Layer drop6
I1014 05:54:47.257015 18782 net.cpp:394] drop6 <- fc6
I1014 05:54:47.257020 18782 net.cpp:345] drop6 -> fc6 (in-place)
I1014 05:54:47.257025 18782 net.cpp:96] Setting up drop6
I1014 05:54:47.257028 18782 net.cpp:103] Top shape: 251 4096 1 1 (1028096)
I1014 05:54:47.257035 18782 net.cpp:67] Creating Layer fc7
I1014 05:54:47.257038 18782 net.cpp:394] fc7 <- fc6
I1014 05:54:47.257042 18782 net.cpp:356] fc7 -> fc7
I1014 05:54:47.257048 18782 net.cpp:96] Setting up fc7
I1014 05:54:47.645802 18782 net.cpp:103] Top shape: 251 4096 1 1 (1028096)
I1014 05:54:47.645848 18782 net.cpp:67] Creating Layer relu7
I1014 05:54:47.645854 18782 net.cpp:394] relu7 <- fc7
I1014 05:54:47.645862 18782 net.cpp:345] relu7 -> fc7 (in-place)
I1014 05:54:47.645869 18782 net.cpp:96] Setting up relu7
I1014 05:54:47.645874 18782 net.cpp:103] Top shape: 251 4096 1 1 (1028096)
I1014 05:54:47.645879 18782 net.cpp:67] Creating Layer drop7
I1014 05:54:47.645881 18782 net.cpp:394] drop7 <- fc7
I1014 05:54:47.645885 18782 net.cpp:345] drop7 -> fc7 (in-place)
I1014 05:54:47.645889 18782 net.cpp:96] Setting up drop7
I1014 05:54:47.645894 18782 net.cpp:103] Top shape: 251 4096 1 1 (1028096)
I1014 05:54:47.645900 18782 net.cpp:67] Creating Layer fc8_clampdet
I1014 05:54:47.645911 18782 net.cpp:394] fc8_clampdet <- fc7
I1014 05:54:47.645917 18782 net.cpp:356] fc8_clampdet -> fc8_clampdet
I1014 05:54:47.645926 18782 net.cpp:96] Setting up fc8_clampdet
I1014 05:54:47.646139 18782 net.cpp:103] Top shape: 251 2 1 1 (502)
I1014 05:54:47.646152 18782 net.cpp:67] Creating Layer fc8_clampdet_fc8_clampdet_0_split
I1014 05:54:47.646158 18782 net.cpp:394] fc8_clampdet_fc8_clampdet_0_split <- fc8_clampdet
I1014 05:54:47.646162 18782 net.cpp:356] fc8_clampdet_fc8_clampdet_0_split -> fc8_clampdet_fc8_clampdet_0_split_0
I1014 05:54:47.646168 18782 net.cpp:356] fc8_clampdet_fc8_clampdet_0_split -> fc8_clampdet_fc8_clampdet_0_split_1
I1014 05:54:47.646173 18782 net.cpp:96] Setting up fc8_clampdet_fc8_clampdet_0_split
I1014 05:54:47.646178 18782 net.cpp:103] Top shape: 251 2 1 1 (502)
I1014 05:54:47.646180 18782 net.cpp:103] Top shape: 251 2 1 1 (502)
I1014 05:54:47.646186 18782 net.cpp:67] Creating Layer loss
I1014 05:54:47.646189 18782 net.cpp:394] loss <- fc8_clampdet_fc8_clampdet_0_split_0
I1014 05:54:47.646193 18782 net.cpp:394] loss <- label_data_1_split_0
I1014 05:54:47.646198 18782 net.cpp:356] loss -> (automatic)
I1014 05:54:47.646203 18782 net.cpp:96] Setting up loss
I1014 05:54:47.646208 18782 net.cpp:103] Top shape: 1 1 1 1 (1)
I1014 05:54:47.646210 18782 net.cpp:109]     with loss weight 1
I1014 05:54:47.646227 18782 net.cpp:67] Creating Layer accuracy
I1014 05:54:47.646231 18782 net.cpp:394] accuracy <- fc8_clampdet_fc8_clampdet_0_split_1
I1014 05:54:47.646234 18782 net.cpp:394] accuracy <- label_data_1_split_1
I1014 05:54:47.646239 18782 net.cpp:356] accuracy -> accuracy
I1014 05:54:47.646245 18782 net.cpp:96] Setting up accuracy
I1014 05:54:47.646251 18782 net.cpp:103] Top shape: 1 1 1 1 (1)
I1014 05:54:47.646255 18782 net.cpp:172] accuracy does not need backward computation.
I1014 05:54:47.646258 18782 net.cpp:170] loss needs backward computation.
I1014 05:54:47.646261 18782 net.cpp:170] fc8_clampdet_fc8_clampdet_0_split needs backward computation.
I1014 05:54:47.646265 18782 net.cpp:170] fc8_clampdet needs backward computation.
I1014 05:54:47.646267 18782 net.cpp:172] drop7 does not need backward computation.
…
