…
I1014 05:31:42.356693 16585 net.cpp:275] The NetState phase (0) differed from the phase (1) specified by a rule in layer accuracy
I1014 05:31:42.356887 16585 net.cpp:39] Initializing net from parameters: 
name: "ClampdetCaffeNet"
layers {
  top: "data"
  top: "label"
  name: "data"
  type: IMAGE_DATA
  image_data_param {
    source: "data/clampdet/train.txt"
    batch_size: 256
    new_height: 256
    new_width: 256
  }
  include {
    phase: TRAIN
  }
  transform_param {
    mirror: true
    crop_size: 227
    mean_file: "/homes/ad6813/data/controlpoint_mean_256-227.binaryproto"
  }
}
layers {
  bottom: "data"
  top: "conv1"
  name: "conv1"
  type: CONVOLUTION
  blobs_lr: 0
  blobs_lr: 0
  weight_decay: 0
  weight_decay: 0
  convolution_param {
    num_output: 96
    kernel_size: 11
    stride: 4
    weight_filler {
      type: "gaussian"
      std: 0.01
    }
    bias_filler {
      type: "constant"
      value: 0
    }
  }
}
layers {
  bottom: "conv1"
  top: "conv1"
  name: "relu1"
  type: RELU
}
layers {
  bottom: "conv1"
  top: "pool1"
  name: "pool1"
  type: POOLING
  pooling_param {
    pool: MAX
    kernel_size: 3
    stride: 2
  }
}
layers {
  bottom: "pool1"
  top: "norm1"
  name: "norm1"
  type: LRN
  lrn_param {
    local_size: 5
    alpha: 0.0001
    beta: 0.75
  }
}
layers {
  bottom: "norm1"
  top: "conv2"
  name: "conv2"
  type: CONVOLUTION
  blobs_lr: 0
  blobs_lr: 0
  weight_decay: 0
  weight_decay: 0
  convolution_param {
    num_output: 256
    pad: 2
    kernel_size: 5
    group: 2
    weight_filler {
      type: "gaussian"
      std: 0.01
    }
    bias_filler {
      type: "constant"
      value: 1
    }
  }
}
layers {
  bottom: "conv2"
  top: "conv2"
  name: "relu2"
  type: RELU
}
layers {
  bottom: "conv2"
  top: "pool2"
  name: "pool2"
  type: POOLING
  pooling_param {
    pool: MAX
    kernel_size: 3
    stride: 2
  }
}
layers {
  bottom: "pool2"
  top: "norm2"
  name: "norm2"
  type: LRN
  lrn_param {
    local_size: 5
    alpha: 0.0001
    beta: 0.75
  }
}
layers {
  bottom: "norm2"
  top: "conv3"
  name: "conv3"
  type: CONVOLUTION
  blobs_lr: 0
  blobs_lr: 0
  weight_decay: 0
  weight_decay: 0
  convolution_param {
    num_output: 384
    pad: 1
    kernel_size: 3
    weight_filler {
      type: "gaussian"
      std: 0.01
    }
    bias_filler {
      type: "constant"
      value: 0
    }
  }
}
layers {
  bottom: "conv3"
  top: "conv3"
  name: "relu3"
  type: RELU
}
layers {
  bottom: "conv3"
  top: "conv4"
  name: "conv4"
  type: CONVOLUTION
  blobs_lr: 0
  blobs_lr: 0
  weight_decay: 0
  weight_decay: 0
  convolution_param {
    num_output: 384
    pad: 1
    kernel_size: 3
    group: 2
    weight_filler {
      type: "gaussian"
      std: 0.01
    }
    bias_filler {
      type: "constant"
      value: 1
    }
  }
}
layers {
  bottom: "conv4"
  top: "conv4"
  name: "relu4"
  type: RELU
}
layers {
  bottom: "conv4"
  top: "conv5"
  name: "conv5"
  type: CONVOLUTION
  blobs_lr: 0
  blobs_lr: 0
  weight_decay: 0
  weight_decay: 0
  convolution_param {
    num_output: 256
    pad: 1
    kernel_size: 3
    group: 2
    weight_filler {
      type: "gaussian"
      std: 0.01
    }
    bias_filler {
      type: "constant"
      value: 1
    }
  }
}
layers {
  bottom: "conv5"
  top: "conv5"
  name: "relu5"
  type: RELU
}
layers {
  bottom: "conv5"
  top: "pool5"
  name: "pool5"
  type: POOLING
  pooling_param {
    pool: MAX
    kernel_size: 3
    stride: 2
  }
}
layers {
  bottom: "pool5"
  top: "fc6"
  name: "fc6"
  type: INNER_PRODUCT
  blobs_lr: 0
  blobs_lr: 0
  weight_decay: 0
  weight_decay: 0
  inner_product_param {
    num_output: 4096
    weight_filler {
      type: "gaussian"
      std: 0.005
    }
    bias_filler {
      type: "constant"
      value: 1
    }
  }
}
layers {
  bottom: "fc6"
  top: "fc6"
  name: "relu6"
  type: RELU
}
layers {
  bottom: "fc6"
  top: "fc6"
  name: "drop6"
  type: DROPOUT
  dropout_param {
    dropout_ratio: 0.5
  }
}
layers {
  bottom: "fc6"
  top: "fc7"
  name: "fc7"
  type: INNER_PRODUCT
  blobs_lr: 0
  blobs_lr: 0
  weight_decay: 0
  weight_decay: 0
  inner_product_param {
    num_output: 4096
    weight_filler {
      type: "gaussian"
      std: 0.005
    }
    bias_filler {
      type: "constant"
      value: 1
    }
  }
}
layers {
  bottom: "fc7"
  top: "fc7"
  name: "relu7"
  type: RELU
}
layers {
  bottom: "fc7"
  top: "fc7"
  name: "drop7"
  type: DROPOUT
  dropout_param {
    dropout_ratio: 0.5
  }
}
layers {
  bottom: "fc7"
  top: "fc8_clampdet"
  name: "fc8_clampdet"
  type: INNER_PRODUCT
  blobs_lr: 1
  blobs_lr: 2
  weight_decay: 1
  weight_decay: 0
  inner_product_param {
    num_output: 2
    weight_filler {
      type: "gaussian"
      std: 0.01
    }
    bias_filler {
      type: "constant"
      value: 0
    }
  }
}
layers {
  bottom: "fc8_clampdet"
  bottom: "label"
  name: "loss"
  type: SOFTMAX_LOSS
}
state {
  phase: TRAIN
}
I1014 05:31:42.356982 16585 net.cpp:67] Creating Layer data
I1014 05:31:42.356993 16585 net.cpp:356] data -> data
I1014 05:31:42.357010 16585 net.cpp:356] data -> label
I1014 05:31:42.357023 16585 net.cpp:96] Setting up data
I1014 05:31:42.357028 16585 image_data_layer.cpp:30] Opening file data/clampdet/train.txt
I1014 05:31:42.357094 16585 image_data_layer.cpp:45] A total of 6 images.
I1014 05:31:42.363064 16585 image_data_layer.cpp:73] output data size: 256,3,227,227
I1014 05:31:42.363090 16585 base_data_layer.cpp:36] Loading mean file from/homes/ad6813/data/controlpoint_mean_256-227.binaryproto
I1014 05:31:42.383707 16585 net.cpp:103] Top shape: 256 3 227 227 (39574272)
I1014 05:31:42.383733 16585 net.cpp:103] Top shape: 256 1 1 1 (256)
I1014 05:31:42.383760 16585 net.cpp:67] Creating Layer conv1
I1014 05:31:42.383764 16585 net.cpp:394] conv1 <- data
I1014 05:31:42.383777 16585 net.cpp:356] conv1 -> conv1
I1014 05:31:42.383788 16585 net.cpp:96] Setting up conv1
I1014 05:31:42.385794 16585 net.cpp:103] Top shape: 256 96 55 55 (74342400)
I1014 05:31:42.385866 16585 net.cpp:67] Creating Layer relu1
I1014 05:31:42.385879 16585 net.cpp:394] relu1 <- conv1
I1014 05:31:42.385895 16585 net.cpp:345] relu1 -> conv1 (in-place)
I1014 05:31:42.385920 16585 net.cpp:96] Setting up relu1
I1014 05:31:42.385932 16585 net.cpp:103] Top shape: 256 96 55 55 (74342400)
I1014 05:31:42.385946 16585 net.cpp:67] Creating Layer pool1
I1014 05:31:42.385956 16585 net.cpp:394] pool1 <- conv1
I1014 05:31:42.385978 16585 net.cpp:356] pool1 -> pool1
I1014 05:31:42.385984 16585 net.cpp:96] Setting up pool1
I1014 05:31:42.385994 16585 net.cpp:103] Top shape: 256 96 27 27 (17915904)
I1014 05:31:42.386000 16585 net.cpp:67] Creating Layer norm1
I1014 05:31:42.386005 16585 net.cpp:394] norm1 <- pool1
I1014 05:31:42.386009 16585 net.cpp:356] norm1 -> norm1
I1014 05:31:42.386015 16585 net.cpp:96] Setting up norm1
I1014 05:31:42.386021 16585 net.cpp:103] Top shape: 256 96 27 27 (17915904)
I1014 05:31:42.386029 16585 net.cpp:67] Creating Layer conv2
I1014 05:31:42.386031 16585 net.cpp:394] conv2 <- norm1
I1014 05:31:42.386035 16585 net.cpp:356] conv2 -> conv2
I1014 05:31:42.386041 16585 net.cpp:96] Setting up conv2
I1014 05:31:42.395370 16585 net.cpp:103] Top shape: 256 256 27 27 (47775744)
I1014 05:31:42.395385 16585 net.cpp:67] Creating Layer relu2
I1014 05:31:42.395388 16585 net.cpp:394] relu2 <- conv2
I1014 05:31:42.395392 16585 net.cpp:345] relu2 -> conv2 (in-place)
I1014 05:31:42.395397 16585 net.cpp:96] Setting up relu2
I1014 05:31:42.395401 16585 net.cpp:103] Top shape: 256 256 27 27 (47775744)
I1014 05:31:42.395405 16585 net.cpp:67] Creating Layer pool2
I1014 05:31:42.395416 16585 net.cpp:394] pool2 <- conv2
I1014 05:31:42.395421 16585 net.cpp:356] pool2 -> pool2
I1014 05:31:42.395426 16585 net.cpp:96] Setting up pool2
I1014 05:31:42.395429 16585 net.cpp:103] Top shape: 256 256 13 13 (11075584)
I1014 05:31:42.395434 16585 net.cpp:67] Creating Layer norm2
I1014 05:31:42.395437 16585 net.cpp:394] norm2 <- pool2
I1014 05:31:42.395442 16585 net.cpp:356] norm2 -> norm2
I1014 05:31:42.395447 16585 net.cpp:96] Setting up norm2
I1014 05:31:42.395450 16585 net.cpp:103] Top shape: 256 256 13 13 (11075584)
I1014 05:31:42.395455 16585 net.cpp:67] Creating Layer conv3
I1014 05:31:42.395458 16585 net.cpp:394] conv3 <- norm2
I1014 05:31:42.395463 16585 net.cpp:356] conv3 -> conv3
I1014 05:31:42.395468 16585 net.cpp:96] Setting up conv3
I1014 05:31:42.418215 16585 net.cpp:103] Top shape: 256 384 13 13 (16613376)
I1014 05:31:42.418246 16585 net.cpp:67] Creating Layer relu3
I1014 05:31:42.418251 16585 net.cpp:394] relu3 <- conv3
I1014 05:31:42.418256 16585 net.cpp:345] relu3 -> conv3 (in-place)
I1014 05:31:42.418262 16585 net.cpp:96] Setting up relu3
I1014 05:31:42.418267 16585 net.cpp:103] Top shape: 256 384 13 13 (16613376)
I1014 05:31:42.418272 16585 net.cpp:67] Creating Layer conv4
I1014 05:31:42.418275 16585 net.cpp:394] conv4 <- conv3
I1014 05:31:42.418279 16585 net.cpp:356] conv4 -> conv4
I1014 05:31:42.418284 16585 net.cpp:96] Setting up conv4
I1014 05:31:42.435566 16585 net.cpp:103] Top shape: 256 384 13 13 (16613376)
I1014 05:31:42.435587 16585 net.cpp:67] Creating Layer relu4
I1014 05:31:42.435591 16585 net.cpp:394] relu4 <- conv4
I1014 05:31:42.435596 16585 net.cpp:345] relu4 -> conv4 (in-place)
I1014 05:31:42.435602 16585 net.cpp:96] Setting up relu4
I1014 05:31:42.435606 16585 net.cpp:103] Top shape: 256 384 13 13 (16613376)
I1014 05:31:42.435611 16585 net.cpp:67] Creating Layer conv5
I1014 05:31:42.435613 16585 net.cpp:394] conv5 <- conv4
I1014 05:31:42.435618 16585 net.cpp:356] conv5 -> conv5
I1014 05:31:42.435623 16585 net.cpp:96] Setting up conv5
I1014 05:31:42.446964 16585 net.cpp:103] Top shape: 256 256 13 13 (11075584)
I1014 05:31:42.446980 16585 net.cpp:67] Creating Layer relu5
I1014 05:31:42.446985 16585 net.cpp:394] relu5 <- conv5
I1014 05:31:42.446988 16585 net.cpp:345] relu5 -> conv5 (in-place)
I1014 05:31:42.446993 16585 net.cpp:96] Setting up relu5
I1014 05:31:42.446996 16585 net.cpp:103] Top shape: 256 256 13 13 (11075584)
I1014 05:31:42.447001 16585 net.cpp:67] Creating Layer pool5
I1014 05:31:42.447005 16585 net.cpp:394] pool5 <- conv5
I1014 05:31:42.447010 16585 net.cpp:356] pool5 -> pool5
I1014 05:31:42.447016 16585 net.cpp:96] Setting up pool5
I1014 05:31:42.447020 16585 net.cpp:103] Top shape: 256 256 6 6 (2359296)
I1014 05:31:42.447027 16585 net.cpp:67] Creating Layer fc6
I1014 05:31:42.447031 16585 net.cpp:394] fc6 <- pool5
I1014 05:31:42.447036 16585 net.cpp:356] fc6 -> fc6
I1014 05:31:42.447041 16585 net.cpp:96] Setting up fc6
I1014 05:31:43.378257 16585 net.cpp:103] Top shape: 256 4096 1 1 (1048576)
I1014 05:31:43.378303 16585 net.cpp:67] Creating Layer relu6
I1014 05:31:43.378309 16585 net.cpp:394] relu6 <- fc6
I1014 05:31:43.378314 16585 net.cpp:345] relu6 -> fc6 (in-place)
I1014 05:31:43.378321 16585 net.cpp:96] Setting up relu6
I1014 05:31:43.378324 16585 net.cpp:103] Top shape: 256 4096 1 1 (1048576)
I1014 05:31:43.378330 16585 net.cpp:67] Creating Layer drop6
I1014 05:31:43.378334 16585 net.cpp:394] drop6 <- fc6
I1014 05:31:43.378339 16585 net.cpp:345] drop6 -> fc6 (in-place)
I1014 05:31:43.378342 16585 net.cpp:96] Setting up drop6
I1014 05:31:43.378350 16585 net.cpp:103] Top shape: 256 4096 1 1 (1048576)
I1014 05:31:43.378355 16585 net.cpp:67] Creating Layer fc7
I1014 05:31:43.378357 16585 net.cpp:394] fc7 <- fc6
I1014 05:31:43.378362 16585 net.cpp:356] fc7 -> fc7
I1014 05:31:43.378367 16585 net.cpp:96] Setting up fc7
I1014 05:31:43.773851 16585 net.cpp:103] Top shape: 256 4096 1 1 (1048576)
I1014 05:31:43.773895 16585 net.cpp:67] Creating Layer relu7
I1014 05:31:43.773900 16585 net.cpp:394] relu7 <- fc7
I1014 05:31:43.773907 16585 net.cpp:345] relu7 -> fc7 (in-place)
I1014 05:31:43.773923 16585 net.cpp:96] Setting up relu7
I1014 05:31:43.773927 16585 net.cpp:103] Top shape: 256 4096 1 1 (1048576)
I1014 05:31:43.773932 16585 net.cpp:67] Creating Layer drop7
I1014 05:31:43.773936 16585 net.cpp:394] drop7 <- fc7
I1014 05:31:43.773941 16585 net.cpp:345] drop7 -> fc7 (in-place)
I1014 05:31:43.773944 16585 net.cpp:96] Setting up drop7
I1014 05:31:43.773948 16585 net.cpp:103] Top shape: 256 4096 1 1 (1048576)
I1014 05:31:43.773953 16585 net.cpp:67] Creating Layer fc8_clampdet
I1014 05:31:43.773957 16585 net.cpp:394] fc8_clampdet <- fc7
I1014 05:31:43.773962 16585 net.cpp:356] fc8_clampdet -> fc8_clampdet
I1014 05:31:43.773967 16585 net.cpp:96] Setting up fc8_clampdet
I1014 05:31:43.774181 16585 net.cpp:103] Top shape: 256 2 1 1 (512)
I1014 05:31:43.774193 16585 net.cpp:67] Creating Layer loss
I1014 05:31:43.774195 16585 net.cpp:394] loss <- fc8_clampdet
I1014 05:31:43.774199 16585 net.cpp:394] loss <- label
I1014 05:31:43.774204 16585 net.cpp:356] loss -> (automatic)
I1014 05:31:43.774207 16585 net.cpp:96] Setting up loss
I1014 05:31:43.774219 16585 net.cpp:103] Top shape: 1 1 1 1 (1)
I1014 05:31:43.774224 16585 net.cpp:109]     with loss weight 1
I1014 05:31:43.774255 16585 net.cpp:170] loss needs backward computation.
I1014 05:31:43.774258 16585 net.cpp:170] fc8_clampdet needs backward computation.
I1014 05:31:43.774262 16585 net.cpp:172] drop7 does not need backward computation.
I1014 05:31:43.774266 16585 net.cpp:172] relu7 does not need backward computation.
I1014 05:31:43.774268 16585 net.cpp:172] fc7 does not need backward computation.
…
I1014 05:31:43.774941 16585 solver.cpp:151] Creating test net (#0) specified by net file: task/clamp/train_val.prototxt
I1014 05:31:43.774979 16585 net.cpp:275] The NetState phase (1) differed from the phase (0) specified by a rule in layer data
I1014 05:31:43.775148 16585 net.cpp:39] Initializing net from parameters: 
name: "ClampdetCaffeNet"
layers {
  top: "data"
  top: "label"
  name: "data"
  type: IMAGE_DATA
  image_data_param {
    source: "data/clampdet/val.txt"
    batch_size: 251
    new_height: 256
    new_width: 256
  }
  include {
    phase: TEST
  }
  transform_param {
    mirror: false
    crop_size: 227
    mean_file: "/homes/ad6813/data/controlpoint_mean_256-227.binaryproto"
  }
}
layers {
  bottom: "data"
  top: "conv1"
  name: "conv1"
  type: CONVOLUTION
  blobs_lr: 0
  blobs_lr: 0
  weight_decay: 0
  weight_decay: 0
  convolution_param {
    num_output: 96
    kernel_size: 11
    stride: 4
    weight_filler {
      type: "gaussian"
      std: 0.01
    }
    bias_filler {
      type: "constant"
      value: 0
    }
  }
}
layers {
  bottom: "conv1"
  top: "conv1"
  name: "relu1"
  type: RELU
}
layers {
  bottom: "conv1"
  top: "pool1"
  name: "pool1"
  type: POOLING
  pooling_param {
    pool: MAX
    kernel_size: 3
    stride: 2
  }
}
layers {
  bottom: "pool1"
  top: "norm1"
  name: "norm1"
  type: LRN
  lrn_param {
    local_size: 5
    alpha: 0.0001
    beta: 0.75
  }
}
layers {
  bottom: "norm1"
  top: "conv2"
  name: "conv2"
  type: CONVOLUTION
  blobs_lr: 0
  blobs_lr: 0
  weight_decay: 0
  weight_decay: 0
  convolution_param {
    num_output: 256
    pad: 2
    kernel_size: 5
    group: 2
    weight_filler {
      type: "gaussian"
      std: 0.01
    }
    bias_filler {
      type: "constant"
      value: 1
    }
  }
}
layers {
  bottom: "conv2"
  top: "conv2"
  name: "relu2"
  type: RELU
}
layers {
  bottom: "conv2"
  top: "pool2"
  name: "pool2"
  type: POOLING
  pooling_param {
    pool: MAX
    kernel_size: 3
    stride: 2
  }
}
layers {
  bottom: "pool2"
  top: "norm2"
  name: "norm2"
  type: LRN
  lrn_param {
    local_size: 5
    alpha: 0.0001
    beta: 0.75
  }
}
layers {
  bottom: "norm2"
  top: "conv3"
  name: "conv3"
  type: CONVOLUTION
  blobs_lr: 0
  blobs_lr: 0
  weight_decay: 0
  weight_decay: 0
  convolution_param {
    num_output: 384
    pad: 1
    kernel_size: 3
    weight_filler {
      type: "gaussian"
      std: 0.01
    }
    bias_filler {
      type: "constant"
      value: 0
    }
  }
}
layers {
  bottom: "conv3"
  top: "conv3"
  name: "relu3"
  type: RELU
}
layers {
  bottom: "conv3"
  top: "conv4"
  name: "conv4"
  type: CONVOLUTION
  blobs_lr: 0
  blobs_lr: 0
  weight_decay: 0
  weight_decay: 0
  convolution_param {
    num_output: 384
    pad: 1
    kernel_size: 3
    group: 2
    weight_filler {
      type: "gaussian"
      std: 0.01
    }
    bias_filler {
      type: "constant"
      value: 1
    }
  }
}
layers {
  bottom: "conv4"
  top: "conv4"
  name: "relu4"
  type: RELU
}
layers {
  bottom: "conv4"
  top: "conv5"
  name: "conv5"
  type: CONVOLUTION
  blobs_lr: 0
  blobs_lr: 0
  weight_decay: 0
  weight_decay: 0
  convolution_param {
    num_output: 256
    pad: 1
    kernel_size: 3
    group: 2
    weight_filler {
      type: "gaussian"
      std: 0.01
    }
    bias_filler {
      type: "constant"
      value: 1
    }
  }
}
layers {
  bottom: "conv5"
  top: "conv5"
  name: "relu5"
  type: RELU
}
layers {
  bottom: "conv5"
  top: "pool5"
  name: "pool5"
  type: POOLING
  pooling_param {
    pool: MAX
    kernel_size: 3
    stride: 2
  }
}
layers {
  bottom: "pool5"
  top: "fc6"
  name: "fc6"
  type: INNER_PRODUCT
  blobs_lr: 0
  blobs_lr: 0
  weight_decay: 0
  weight_decay: 0
  inner_product_param {
    num_output: 4096
    weight_filler {
      type: "gaussian"
      std: 0.005
    }
    bias_filler {
      type: "constant"
      value: 1
    }
  }
}
layers {
  bottom: "fc6"
  top: "fc6"
  name: "relu6"
  type: RELU
}
layers {
  bottom: "fc6"
  top: "fc6"
  name: "drop6"
  type: DROPOUT
  dropout_param {
    dropout_ratio: 0.5
  }
}
layers {
  bottom: "fc6"
  top: "fc7"
  name: "fc7"
  type: INNER_PRODUCT
  blobs_lr: 0
  blobs_lr: 0
  weight_decay: 0
  weight_decay: 0
  inner_product_param {
    num_output: 4096
    weight_filler {
      type: "gaussian"
      std: 0.005
    }
    bias_filler {
      type: "constant"
      value: 1
    }
  }
}
layers {
  bottom: "fc7"
  top: "fc7"
  name: "relu7"
  type: RELU
}
layers {
  bottom: "fc7"
  top: "fc7"
  name: "drop7"
  type: DROPOUT
  dropout_param {
    dropout_ratio: 0.5
  }
}
layers {
  bottom: "fc7"
  top: "fc8_clampdet"
  name: "fc8_clampdet"
  type: INNER_PRODUCT
  blobs_lr: 1
  blobs_lr: 2
  weight_decay: 1
  weight_decay: 0
  inner_product_param {
    num_output: 2
    weight_filler {
      type: "gaussian"
      std: 0.01
    }
    bias_filler {
      type: "constant"
      value: 0
    }
  }
}
layers {
  bottom: "fc8_clampdet"
  bottom: "label"
  name: "loss"
  type: SOFTMAX_LOSS
}
layers {
  bottom: "fc8_clampdet"
  bottom: "label"
  top: "accuracy"
  name: "accuracy"
  type: ACCURACY
  include {
    phase: TEST
  }
}
state {
  phase: TEST
}
I1014 05:31:43.775250 16585 net.cpp:67] Creating Layer data
I1014 05:31:43.775256 16585 net.cpp:356] data -> data
I1014 05:31:43.775264 16585 net.cpp:356] data -> label
I1014 05:31:43.775269 16585 net.cpp:96] Setting up data
I1014 05:31:43.775272 16585 image_data_layer.cpp:30] Opening file data/clampdet/val.txt
I1014 05:31:43.775293 16585 image_data_layer.cpp:45] A total of 3 images.
I1014 05:31:43.778556 16585 image_data_layer.cpp:73] output data size: 251,3,227,227
I1014 05:31:43.778568 16585 base_data_layer.cpp:36] Loading mean file from/homes/ad6813/data/controlpoint_mean_256-227.binaryproto
I1014 05:31:43.798595 16585 net.cpp:103] Top shape: 251 3 227 227 (38801337)
I1014 05:31:43.798625 16585 net.cpp:103] Top shape: 251 1 1 1 (251)
I1014 05:31:43.798636 16585 net.cpp:67] Creating Layer label_data_1_split
I1014 05:31:43.798641 16585 net.cpp:394] label_data_1_split <- label
I1014 05:31:43.798647 16585 net.cpp:356] label_data_1_split -> label_data_1_split_0
I1014 05:31:43.798658 16585 net.cpp:356] label_data_1_split -> label_data_1_split_1
I1014 05:31:43.798663 16585 net.cpp:96] Setting up label_data_1_split
I1014 05:31:43.798671 16585 net.cpp:103] Top shape: 251 1 1 1 (251)
I1014 05:31:43.798674 16585 net.cpp:103] Top shape: 251 1 1 1 (251)
I1014 05:31:43.798682 16585 net.cpp:67] Creating Layer conv1
I1014 05:31:43.798687 16585 net.cpp:394] conv1 <- data
I1014 05:31:43.798692 16585 net.cpp:356] conv1 -> conv1
I1014 05:31:43.798699 16585 net.cpp:96] Setting up conv1
I1014 05:31:43.799619 16585 net.cpp:103] Top shape: 251 96 55 55 (72890400)
I1014 05:31:43.799635 16585 net.cpp:67] Creating Layer relu1
I1014 05:31:43.799640 16585 net.cpp:394] relu1 <- conv1
I1014 05:31:43.799644 16585 net.cpp:345] relu1 -> conv1 (in-place)
I1014 05:31:43.799649 16585 net.cpp:96] Setting up relu1
I1014 05:31:43.799653 16585 net.cpp:103] Top shape: 251 96 55 55 (72890400)
I1014 05:31:43.799657 16585 net.cpp:67] Creating Layer pool1
I1014 05:31:43.799660 16585 net.cpp:394] pool1 <- conv1
I1014 05:31:43.799664 16585 net.cpp:356] pool1 -> pool1
I1014 05:31:43.799669 16585 net.cpp:96] Setting up pool1
I1014 05:31:43.799674 16585 net.cpp:103] Top shape: 251 96 27 27 (17565984)
I1014 05:31:43.799679 16585 net.cpp:67] Creating Layer norm1
I1014 05:31:43.799682 16585 net.cpp:394] norm1 <- pool1
I1014 05:31:43.799686 16585 net.cpp:356] norm1 -> norm1
I1014 05:31:43.799690 16585 net.cpp:96] Setting up norm1
I1014 05:31:43.799695 16585 net.cpp:103] Top shape: 251 96 27 27 (17565984)
I1014 05:31:43.799700 16585 net.cpp:67] Creating Layer conv2
I1014 05:31:43.799702 16585 net.cpp:394] conv2 <- norm1
I1014 05:31:43.799707 16585 net.cpp:356] conv2 -> conv2
I1014 05:31:43.799711 16585 net.cpp:96] Setting up conv2
I1014 05:31:43.807410 16585 net.cpp:103] Top shape: 251 256 27 27 (46842624)
I1014 05:31:43.807423 16585 net.cpp:67] Creating Layer relu2
I1014 05:31:43.807427 16585 net.cpp:394] relu2 <- conv2
I1014 05:31:43.807432 16585 net.cpp:345] relu2 -> conv2 (in-place)
I1014 05:31:43.807436 16585 net.cpp:96] Setting up relu2
I1014 05:31:43.807440 16585 net.cpp:103] Top shape: 251 256 27 27 (46842624)
I1014 05:31:43.807446 16585 net.cpp:67] Creating Layer pool2
I1014 05:31:43.807448 16585 net.cpp:394] pool2 <- conv2
I1014 05:31:43.807452 16585 net.cpp:356] pool2 -> pool2
I1014 05:31:43.807458 16585 net.cpp:96] Setting up pool2
I1014 05:31:43.807466 16585 net.cpp:103] Top shape: 251 256 13 13 (10859264)
I1014 05:31:43.807471 16585 net.cpp:67] Creating Layer norm2
I1014 05:31:43.807472 16585 net.cpp:394] norm2 <- pool2
I1014 05:31:43.807476 16585 net.cpp:356] norm2 -> norm2
I1014 05:31:43.807482 16585 net.cpp:96] Setting up norm2
I1014 05:31:43.807492 16585 net.cpp:103] Top shape: 251 256 13 13 (10859264)
I1014 05:31:43.807499 16585 net.cpp:67] Creating Layer conv3
I1014 05:31:43.807502 16585 net.cpp:394] conv3 <- norm2
I1014 05:31:43.807508 16585 net.cpp:356] conv3 -> conv3
I1014 05:31:43.807521 16585 net.cpp:96] Setting up conv3
I1014 05:31:43.829897 16585 net.cpp:103] Top shape: 251 384 13 13 (16288896)
I1014 05:31:43.829928 16585 net.cpp:67] Creating Layer relu3
I1014 05:31:43.829932 16585 net.cpp:394] relu3 <- conv3
I1014 05:31:43.829939 16585 net.cpp:345] relu3 -> conv3 (in-place)
I1014 05:31:43.829946 16585 net.cpp:96] Setting up relu3
I1014 05:31:43.829949 16585 net.cpp:103] Top shape: 251 384 13 13 (16288896)
I1014 05:31:43.829956 16585 net.cpp:67] Creating Layer conv4
I1014 05:31:43.829958 16585 net.cpp:394] conv4 <- conv3
I1014 05:31:43.829964 16585 net.cpp:356] conv4 -> conv4
I1014 05:31:43.829970 16585 net.cpp:96] Setting up conv4
I1014 05:31:43.846532 16585 net.cpp:103] Top shape: 251 384 13 13 (16288896)
I1014 05:31:43.846552 16585 net.cpp:67] Creating Layer relu4
I1014 05:31:43.846556 16585 net.cpp:394] relu4 <- conv4
I1014 05:31:43.846564 16585 net.cpp:345] relu4 -> conv4 (in-place)
I1014 05:31:43.846568 16585 net.cpp:96] Setting up relu4
I1014 05:31:43.846571 16585 net.cpp:103] Top shape: 251 384 13 13 (16288896)
I1014 05:31:43.846577 16585 net.cpp:67] Creating Layer conv5
I1014 05:31:43.846580 16585 net.cpp:394] conv5 <- conv4
I1014 05:31:43.846585 16585 net.cpp:356] conv5 -> conv5
I1014 05:31:43.846591 16585 net.cpp:96] Setting up conv5
I1014 05:31:43.857785 16585 net.cpp:103] Top shape: 251 256 13 13 (10859264)
I1014 05:31:43.857802 16585 net.cpp:67] Creating Layer relu5
I1014 05:31:43.857806 16585 net.cpp:394] relu5 <- conv5
I1014 05:31:43.857812 16585 net.cpp:345] relu5 -> conv5 (in-place)
I1014 05:31:43.857817 16585 net.cpp:96] Setting up relu5
I1014 05:31:43.857820 16585 net.cpp:103] Top shape: 251 256 13 13 (10859264)
I1014 05:31:43.857827 16585 net.cpp:67] Creating Layer pool5
I1014 05:31:43.857833 16585 net.cpp:394] pool5 <- conv5
I1014 05:31:43.857837 16585 net.cpp:356] pool5 -> pool5
I1014 05:31:43.857842 16585 net.cpp:96] Setting up pool5
I1014 05:31:43.857847 16585 net.cpp:103] Top shape: 251 256 6 6 (2313216)
I1014 05:31:43.857854 16585 net.cpp:67] Creating Layer fc6
I1014 05:31:43.857858 16585 net.cpp:394] fc6 <- pool5
I1014 05:31:43.857863 16585 net.cpp:356] fc6 -> fc6
I1014 05:31:43.857868 16585 net.cpp:96] Setting up fc6
I1014 05:31:44.785707 16585 net.cpp:103] Top shape: 251 4096 1 1 (1028096)
I1014 05:31:44.785753 16585 net.cpp:67] Creating Layer relu6
I1014 05:31:44.785758 16585 net.cpp:394] relu6 <- fc6
I1014 05:31:44.785766 16585 net.cpp:345] relu6 -> fc6 (in-place)
I1014 05:31:44.785773 16585 net.cpp:96] Setting up relu6
I1014 05:31:44.785776 16585 net.cpp:103] Top shape: 251 4096 1 1 (1028096)
I1014 05:31:44.785781 16585 net.cpp:67] Creating Layer drop6
I1014 05:31:44.785784 16585 net.cpp:394] drop6 <- fc6
I1014 05:31:44.785789 16585 net.cpp:345] drop6 -> fc6 (in-place)
I1014 05:31:44.785792 16585 net.cpp:96] Setting up drop6
I1014 05:31:44.785796 16585 net.cpp:103] Top shape: 251 4096 1 1 (1028096)
I1014 05:31:44.785801 16585 net.cpp:67] Creating Layer fc7
I1014 05:31:44.785804 16585 net.cpp:394] fc7 <- fc6
I1014 05:31:44.785809 16585 net.cpp:356] fc7 -> fc7
I1014 05:31:44.785815 16585 net.cpp:96] Setting up fc7
I1014 05:31:45.181040 16585 net.cpp:103] Top shape: 251 4096 1 1 (1028096)
I1014 05:31:45.181082 16585 net.cpp:67] Creating Layer relu7
I1014 05:31:45.181088 16585 net.cpp:394] relu7 <- fc7
I1014 05:31:45.181097 16585 net.cpp:345] relu7 -> fc7 (in-place)
I1014 05:31:45.181103 16585 net.cpp:96] Setting up relu7
I1014 05:31:45.181107 16585 net.cpp:103] Top shape: 251 4096 1 1 (1028096)
I1014 05:31:45.181112 16585 net.cpp:67] Creating Layer drop7
I1014 05:31:45.181114 16585 net.cpp:394] drop7 <- fc7
I1014 05:31:45.181118 16585 net.cpp:345] drop7 -> fc7 (in-place)
I1014 05:31:45.181123 16585 net.cpp:96] Setting up drop7
I1014 05:31:45.181126 16585 net.cpp:103] Top shape: 251 4096 1 1 (1028096)
I1014 05:31:45.181131 16585 net.cpp:67] Creating Layer fc8_clampdet
I1014 05:31:45.181143 16585 net.cpp:394] fc8_clampdet <- fc7
I1014 05:31:45.181149 16585 net.cpp:356] fc8_clampdet -> fc8_clampdet
I1014 05:31:45.181157 16585 net.cpp:96] Setting up fc8_clampdet
I1014 05:31:45.181380 16585 net.cpp:103] Top shape: 251 2 1 1 (502)
I1014 05:31:45.181391 16585 net.cpp:67] Creating Layer fc8_clampdet_fc8_clampdet_0_split
I1014 05:31:45.181395 16585 net.cpp:394] fc8_clampdet_fc8_clampdet_0_split <- fc8_clampdet
I1014 05:31:45.181398 16585 net.cpp:356] fc8_clampdet_fc8_clampdet_0_split -> fc8_clampdet_fc8_clampdet_0_split_0
I1014 05:31:45.181406 16585 net.cpp:356] fc8_clampdet_fc8_clampdet_0_split -> fc8_clampdet_fc8_clampdet_0_split_1
I1014 05:31:45.181411 16585 net.cpp:96] Setting up fc8_clampdet_fc8_clampdet_0_split
I1014 05:31:45.181418 16585 net.cpp:103] Top shape: 251 2 1 1 (502)
I1014 05:31:45.181421 16585 net.cpp:103] Top shape: 251 2 1 1 (502)
I1014 05:31:45.181427 16585 net.cpp:67] Creating Layer loss
I1014 05:31:45.181431 16585 net.cpp:394] loss <- fc8_clampdet_fc8_clampdet_0_split_0
I1014 05:31:45.181434 16585 net.cpp:394] loss <- label_data_1_split_0
I1014 05:31:45.181438 16585 net.cpp:356] loss -> (automatic)
I1014 05:31:45.181442 16585 net.cpp:96] Setting up loss
I1014 05:31:45.181453 16585 net.cpp:103] Top shape: 1 1 1 1 (1)
I1014 05:31:45.181458 16585 net.cpp:109]     with loss weight 1
I1014 05:31:45.181473 16585 net.cpp:67] Creating Layer accuracy
I1014 05:31:45.181476 16585 net.cpp:394] accuracy <- fc8_clampdet_fc8_clampdet_0_split_1
I1014 05:31:45.181480 16585 net.cpp:394] accuracy <- label_data_1_split_1
I1014 05:31:45.181486 16585 net.cpp:356] accuracy -> accuracy
I1014 05:31:45.181491 16585 net.cpp:96] Setting up accuracy
I1014 05:31:45.181502 16585 net.cpp:103] Top shape: 1 1 1 1 (1)
I1014 05:31:45.181507 16585 net.cpp:172] accuracy does not need backward computation.
I1014 05:31:45.181509 16585 net.cpp:170] loss needs backward computation.
I1014 05:31:45.181514 16585 net.cpp:170] fc8_clampdet_fc8_clampdet_0_split needs backward computation.
I1014 05:31:45.181515 16585 net.cpp:170] fc8_clampdet needs backward computation.
I1014 05:31:45.181519 16585 net.cpp:172] drop7 does not need backward computation.
…
