…
I1015 02:19:03.299698 12329 net.cpp:275] The NetState phase (0) differed from the phase (1) specified by a rule in layer data
I1015 02:19:03.299736 12329 net.cpp:275] The NetState phase (0) differed from the phase (1) specified by a rule in layer accuracy
I1015 02:19:03.299993 12329 net.cpp:39] Initializing net from parameters: 
name: "ClampCaffeNet"
layers {
  top: "data"
  top: "label"
  name: "data"
  type: IMAGE_DATA
  image_data_param {
    source: "data/clamp/train.txt"
    batch_size: 128
    new_height: 256
    new_width: 256
  }
  include {
    phase: TRAIN
  }
  transform_param {
    mirror: true
    crop_size: 227
    mean_file: "/homes/ad6813/data/controlpoint_mean_256-227.binaryproto"
  }
}
layers {
  bottom: "data"
  top: "conv1"
  name: "conv1"
  type: CONVOLUTION
  blobs_lr: 0
  blobs_lr: 0
  weight_decay: 0
  weight_decay: 0
  convolution_param {
    num_output: 96
    kernel_size: 11
    stride: 4
    weight_filler {
      type: "gaussian"
      std: 0.01
    }
    bias_filler {
      type: "constant"
      value: 0
    }
  }
}
layers {
  bottom: "conv1"
  top: "conv1"
  name: "relu1"
  type: RELU
}
layers {
  bottom: "conv1"
  top: "pool1"
  name: "pool1"
  type: POOLING
  pooling_param {
    pool: MAX
    kernel_size: 3
    stride: 2
  }
}
layers {
  bottom: "pool1"
  top: "norm1"
  name: "norm1"
  type: LRN
  lrn_param {
    local_size: 5
    alpha: 0.0001
    beta: 0.75
  }
}
layers {
  bottom: "norm1"
  top: "conv2"
  name: "conv2"
  type: CONVOLUTION
  blobs_lr: 0
  blobs_lr: 0
  weight_decay: 0
  weight_decay: 0
  convolution_param {
    num_output: 256
    pad: 2
    kernel_size: 5
    group: 2
    weight_filler {
      type: "gaussian"
      std: 0.01
    }
    bias_filler {
      type: "constant"
      value: 1
    }
  }
}
layers {
  bottom: "conv2"
  top: "conv2"
  name: "relu2"
  type: RELU
}
layers {
  bottom: "conv2"
  top: "pool2"
  name: "pool2"
  type: POOLING
  pooling_param {
    pool: MAX
    kernel_size: 3
    stride: 2
  }
}
layers {
  bottom: "pool2"
  top: "norm2"
  name: "norm2"
  type: LRN
  lrn_param {
    local_size: 5
    alpha: 0.0001
    beta: 0.75
  }
}
layers {
  bottom: "norm2"
  top: "conv3"
  name: "conv3"
  type: CONVOLUTION
  blobs_lr: 0
  blobs_lr: 0
  weight_decay: 0
  weight_decay: 0
  convolution_param {
    num_output: 384
    pad: 1
    kernel_size: 3
    weight_filler {
      type: "gaussian"
      std: 0.01
    }
    bias_filler {
      type: "constant"
      value: 0
    }
  }
}
layers {
  bottom: "conv3"
  top: "conv3"
  name: "relu3"
  type: RELU
}
layers {
  bottom: "conv3"
  top: "conv4"
  name: "conv4"
  type: CONVOLUTION
  blobs_lr: 0
  blobs_lr: 0
  weight_decay: 0
  weight_decay: 0
  convolution_param {
    num_output: 384
    pad: 1
    kernel_size: 3
    group: 2
    weight_filler {
      type: "gaussian"
      std: 0.01
    }
    bias_filler {
      type: "constant"
      value: 1
    }
  }
}
layers {
  bottom: "conv4"
  top: "conv4"
  name: "relu4"
  type: RELU
}
layers {
  bottom: "conv4"
  top: "conv5"
  name: "conv5"
  type: CONVOLUTION
  blobs_lr: 0
  blobs_lr: 0
  weight_decay: 0
  weight_decay: 0
  convolution_param {
    num_output: 256
    pad: 1
    kernel_size: 3
    group: 2
    weight_filler {
      type: "gaussian"
      std: 0.01
    }
    bias_filler {
      type: "constant"
      value: 1
    }
  }
}
layers {
  bottom: "conv5"
  top: "conv5"
  name: "relu5"
  type: RELU
}
layers {
  bottom: "conv5"
  top: "pool5"
  name: "pool5"
  type: POOLING
  pooling_param {
    pool: MAX
    kernel_size: 3
    stride: 2
  }
}
layers {
  bottom: "pool5"
  top: "fc6"
  name: "fc6"
  type: INNER_PRODUCT
  blobs_lr: 0
  blobs_lr: 0
  weight_decay: 0
  weight_decay: 0
  inner_product_param {
    num_output: 4096
    weight_filler {
      type: "gaussian"
      std: 0.005
    }
    bias_filler {
      type: "constant"
      value: 1
    }
  }
}
layers {
  bottom: "fc6"
  top: "fc6"
  name: "relu6"
  type: RELU
}
layers {
  bottom: "fc6"
  top: "fc6"
  name: "drop6"
  type: DROPOUT
  dropout_param {
    dropout_ratio: 0.5
  }
}
layers {
  bottom: "fc6"
  top: "fc7"
  name: "fc7"
  type: INNER_PRODUCT
  blobs_lr: 0
  blobs_lr: 0
  weight_decay: 0
  weight_decay: 0
  inner_product_param {
    num_output: 4096
    weight_filler {
      type: "gaussian"
      std: 0.005
    }
    bias_filler {
      type: "constant"
      value: 1
    }
  }
}
layers {
  bottom: "fc7"
  top: "fc7"
  name: "relu7"
  type: RELU
}
layers {
  bottom: "fc7"
  top: "fc7"
  name: "drop7"
  type: DROPOUT
  dropout_param {
    dropout_ratio: 0.5
  }
}
layers {
  bottom: "fc7"
  top: "fc8_clamp"
  name: "fc8_clamp"
  type: INNER_PRODUCT
  blobs_lr: 1
  blobs_lr: 2
  weight_decay: 1
  weight_decay: 0
  inner_product_param {
    num_output: 2
    weight_filler {
      type: "gaussian"
      std: 0.01
    }
    bias_filler {
      type: "constant"
      value: 0
    }
  }
}
layers {
  bottom: "fc8_clamp"
  bottom: "label"
  name: "loss"
  type: SOFTMAX_LOSS
}
state {
  phase: TRAIN
}
I1015 02:19:03.300138 12329 net.cpp:67] Creating Layer data
I1015 02:19:03.300151 12329 net.cpp:356] data -> data
I1015 02:19:03.300173 12329 net.cpp:356] data -> label
I1015 02:19:03.300197 12329 net.cpp:96] Setting up data
I1015 02:19:03.300207 12329 image_data_layer.cpp:30] Opening file data/clamp/train.txt
I1015 02:19:03.314179 12329 image_data_layer.cpp:45] A total of 23495 images.
I1015 02:19:03.320978 12329 image_data_layer.cpp:73] output data size: 128,3,227,227
I1015 02:19:03.321019 12329 base_data_layer.cpp:36] Loading mean file from/homes/ad6813/data/controlpoint_mean_256-227.binaryproto
I1015 02:19:03.338340 12329 net.cpp:103] Top shape: 128 3 227 227 (19787136)
I1015 02:19:03.338373 12329 net.cpp:103] Top shape: 128 1 1 1 (128)
I1015 02:19:03.338397 12329 net.cpp:67] Creating Layer conv1
I1015 02:19:03.338404 12329 net.cpp:394] conv1 <- data
I1015 02:19:03.338423 12329 net.cpp:356] conv1 -> conv1
I1015 02:19:03.338438 12329 net.cpp:96] Setting up conv1
I1015 02:19:03.339890 12329 net.cpp:103] Top shape: 128 96 55 55 (37171200)
I1015 02:19:03.339921 12329 net.cpp:67] Creating Layer relu1
I1015 02:19:03.339928 12329 net.cpp:394] relu1 <- conv1
I1015 02:19:03.339936 12329 net.cpp:345] relu1 -> conv1 (in-place)
I1015 02:19:03.339943 12329 net.cpp:96] Setting up relu1
I1015 02:19:03.339951 12329 net.cpp:103] Top shape: 128 96 55 55 (37171200)
I1015 02:19:03.339962 12329 net.cpp:67] Creating Layer pool1
I1015 02:19:03.339967 12329 net.cpp:394] pool1 <- conv1
I1015 02:19:03.339973 12329 net.cpp:356] pool1 -> pool1
I1015 02:19:03.339982 12329 net.cpp:96] Setting up pool1
I1015 02:19:03.339997 12329 net.cpp:103] Top shape: 128 96 27 27 (8957952)
I1015 02:19:03.340006 12329 net.cpp:67] Creating Layer norm1
I1015 02:19:03.340015 12329 net.cpp:394] norm1 <- pool1
I1015 02:19:03.340023 12329 net.cpp:356] norm1 -> norm1
I1015 02:19:03.340039 12329 net.cpp:96] Setting up norm1
I1015 02:19:03.340051 12329 net.cpp:103] Top shape: 128 96 27 27 (8957952)
I1015 02:19:03.340064 12329 net.cpp:67] Creating Layer conv2
I1015 02:19:03.340071 12329 net.cpp:394] conv2 <- norm1
I1015 02:19:03.340078 12329 net.cpp:356] conv2 -> conv2
I1015 02:19:03.340095 12329 net.cpp:96] Setting up conv2
I1015 02:19:03.352123 12329 net.cpp:103] Top shape: 128 256 27 27 (23887872)
I1015 02:19:03.352146 12329 net.cpp:67] Creating Layer relu2
I1015 02:19:03.352152 12329 net.cpp:394] relu2 <- conv2
I1015 02:19:03.352159 12329 net.cpp:345] relu2 -> conv2 (in-place)
I1015 02:19:03.352167 12329 net.cpp:96] Setting up relu2
I1015 02:19:03.352171 12329 net.cpp:103] Top shape: 128 256 27 27 (23887872)
I1015 02:19:03.352179 12329 net.cpp:67] Creating Layer pool2
I1015 02:19:03.352193 12329 net.cpp:394] pool2 <- conv2
I1015 02:19:03.352201 12329 net.cpp:356] pool2 -> pool2
I1015 02:19:03.352210 12329 net.cpp:96] Setting up pool2
I1015 02:19:03.352219 12329 net.cpp:103] Top shape: 128 256 13 13 (5537792)
I1015 02:19:03.352227 12329 net.cpp:67] Creating Layer norm2
I1015 02:19:03.352232 12329 net.cpp:394] norm2 <- pool2
I1015 02:19:03.352239 12329 net.cpp:356] norm2 -> norm2
I1015 02:19:03.352246 12329 net.cpp:96] Setting up norm2
I1015 02:19:03.352252 12329 net.cpp:103] Top shape: 128 256 13 13 (5537792)
I1015 02:19:03.352259 12329 net.cpp:67] Creating Layer conv3
I1015 02:19:03.352264 12329 net.cpp:394] conv3 <- norm2
I1015 02:19:03.352272 12329 net.cpp:356] conv3 -> conv3
I1015 02:19:03.352283 12329 net.cpp:96] Setting up conv3
I1015 02:19:03.387202 12329 net.cpp:103] Top shape: 128 384 13 13 (8306688)
I1015 02:19:03.387243 12329 net.cpp:67] Creating Layer relu3
I1015 02:19:03.387250 12329 net.cpp:394] relu3 <- conv3
I1015 02:19:03.387259 12329 net.cpp:345] relu3 -> conv3 (in-place)
I1015 02:19:03.387269 12329 net.cpp:96] Setting up relu3
I1015 02:19:03.387274 12329 net.cpp:103] Top shape: 128 384 13 13 (8306688)
I1015 02:19:03.387284 12329 net.cpp:67] Creating Layer conv4
I1015 02:19:03.387287 12329 net.cpp:394] conv4 <- conv3
I1015 02:19:03.387295 12329 net.cpp:356] conv4 -> conv4
I1015 02:19:03.387307 12329 net.cpp:96] Setting up conv4
I1015 02:19:03.413722 12329 net.cpp:103] Top shape: 128 384 13 13 (8306688)
I1015 02:19:03.413758 12329 net.cpp:67] Creating Layer relu4
I1015 02:19:03.413764 12329 net.cpp:394] relu4 <- conv4
I1015 02:19:03.413772 12329 net.cpp:345] relu4 -> conv4 (in-place)
I1015 02:19:03.413781 12329 net.cpp:96] Setting up relu4
I1015 02:19:03.413786 12329 net.cpp:103] Top shape: 128 384 13 13 (8306688)
I1015 02:19:03.413795 12329 net.cpp:67] Creating Layer conv5
I1015 02:19:03.413800 12329 net.cpp:394] conv5 <- conv4
I1015 02:19:03.413806 12329 net.cpp:356] conv5 -> conv5
I1015 02:19:03.413821 12329 net.cpp:96] Setting up conv5
I1015 02:19:03.431267 12329 net.cpp:103] Top shape: 128 256 13 13 (5537792)
I1015 02:19:03.431298 12329 net.cpp:67] Creating Layer relu5
I1015 02:19:03.431304 12329 net.cpp:394] relu5 <- conv5
I1015 02:19:03.431311 12329 net.cpp:345] relu5 -> conv5 (in-place)
I1015 02:19:03.431319 12329 net.cpp:96] Setting up relu5
I1015 02:19:03.431324 12329 net.cpp:103] Top shape: 128 256 13 13 (5537792)
I1015 02:19:03.431331 12329 net.cpp:67] Creating Layer pool5
I1015 02:19:03.431336 12329 net.cpp:394] pool5 <- conv5
I1015 02:19:03.431344 12329 net.cpp:356] pool5 -> pool5
I1015 02:19:03.431356 12329 net.cpp:96] Setting up pool5
I1015 02:19:03.431363 12329 net.cpp:103] Top shape: 128 256 6 6 (1179648)
I1015 02:19:03.431375 12329 net.cpp:67] Creating Layer fc6
I1015 02:19:03.431383 12329 net.cpp:394] fc6 <- pool5
I1015 02:19:03.431392 12329 net.cpp:356] fc6 -> fc6
I1015 02:19:03.431404 12329 net.cpp:96] Setting up fc6
I1015 02:19:04.901387 12329 net.cpp:103] Top shape: 128 4096 1 1 (524288)
I1015 02:19:04.901433 12329 net.cpp:67] Creating Layer relu6
I1015 02:19:04.901442 12329 net.cpp:394] relu6 <- fc6
I1015 02:19:04.901450 12329 net.cpp:345] relu6 -> fc6 (in-place)
I1015 02:19:04.901460 12329 net.cpp:96] Setting up relu6
I1015 02:19:04.901465 12329 net.cpp:103] Top shape: 128 4096 1 1 (524288)
I1015 02:19:04.901473 12329 net.cpp:67] Creating Layer drop6
I1015 02:19:04.901478 12329 net.cpp:394] drop6 <- fc6
I1015 02:19:04.901484 12329 net.cpp:345] drop6 -> fc6 (in-place)
I1015 02:19:04.901497 12329 net.cpp:96] Setting up drop6
I1015 02:19:04.901507 12329 net.cpp:103] Top shape: 128 4096 1 1 (524288)
I1015 02:19:04.901518 12329 net.cpp:67] Creating Layer fc7
I1015 02:19:04.901523 12329 net.cpp:394] fc7 <- fc6
I1015 02:19:04.901530 12329 net.cpp:356] fc7 -> fc7
I1015 02:19:04.901540 12329 net.cpp:96] Setting up fc7
I1015 02:19:05.554854 12329 net.cpp:103] Top shape: 128 4096 1 1 (524288)
I1015 02:19:05.554896 12329 net.cpp:67] Creating Layer relu7
I1015 02:19:05.554903 12329 net.cpp:394] relu7 <- fc7
I1015 02:19:05.554913 12329 net.cpp:345] relu7 -> fc7 (in-place)
I1015 02:19:05.554934 12329 net.cpp:96] Setting up relu7
I1015 02:19:05.554940 12329 net.cpp:103] Top shape: 128 4096 1 1 (524288)
I1015 02:19:05.554951 12329 net.cpp:67] Creating Layer drop7
I1015 02:19:05.554956 12329 net.cpp:394] drop7 <- fc7
I1015 02:19:05.554963 12329 net.cpp:345] drop7 -> fc7 (in-place)
I1015 02:19:05.554970 12329 net.cpp:96] Setting up drop7
I1015 02:19:05.554976 12329 net.cpp:103] Top shape: 128 4096 1 1 (524288)
I1015 02:19:05.554985 12329 net.cpp:67] Creating Layer fc8_clamp
I1015 02:19:05.554990 12329 net.cpp:394] fc8_clamp <- fc7
I1015 02:19:05.554998 12329 net.cpp:356] fc8_clamp -> fc8_clamp
I1015 02:19:05.555007 12329 net.cpp:96] Setting up fc8_clamp
I1015 02:19:05.555359 12329 net.cpp:103] Top shape: 128 2 1 1 (256)
I1015 02:19:05.555377 12329 net.cpp:67] Creating Layer loss
I1015 02:19:05.555382 12329 net.cpp:394] loss <- fc8_clamp
I1015 02:19:05.555388 12329 net.cpp:394] loss <- label
I1015 02:19:05.555397 12329 net.cpp:356] loss -> (automatic)
I1015 02:19:05.555403 12329 net.cpp:96] Setting up loss
I1015 02:19:05.555421 12329 net.cpp:103] Top shape: 1 1 1 1 (1)
I1015 02:19:05.555426 12329 net.cpp:109]     with loss weight 1
I1015 02:19:05.555465 12329 net.cpp:170] loss needs backward computation.
I1015 02:19:05.555471 12329 net.cpp:170] fc8_clamp needs backward computation.
I1015 02:19:05.555476 12329 net.cpp:172] drop7 does not need backward computation.
I1015 02:19:05.555480 12329 net.cpp:172] relu7 does not need backward computation.
I1015 02:19:05.555485 12329 net.cpp:172] fc7 does not need backward computation.
…
I1015 02:19:05.556648 12329 solver.cpp:151] Creating test net (#0) specified by net file: task/clamp/train_val.prototxt
I1015 02:19:05.556709 12329 net.cpp:275] The NetState phase (1) differed from the phase (0) specified by a rule in layer data
I1015 02:19:05.556977 12329 net.cpp:39] Initializing net from parameters: 
name: "ClampCaffeNet"
layers {
  top: "data"
  top: "label"
  name: "data"
  type: IMAGE_DATA
  image_data_param {
    source: "data/clamp/val.txt"
    batch_size: 251
    new_height: 256
    new_width: 256
  }
  include {
    phase: TEST
  }
  transform_param {
    mirror: false
    crop_size: 227
    mean_file: "/homes/ad6813/data/controlpoint_mean_256-227.binaryproto"
  }
}
layers {
  bottom: "data"
  top: "conv1"
  name: "conv1"
  type: CONVOLUTION
  blobs_lr: 0
  blobs_lr: 0
  weight_decay: 0
  weight_decay: 0
  convolution_param {
    num_output: 96
    kernel_size: 11
    stride: 4
    weight_filler {
      type: "gaussian"
      std: 0.01
    }
    bias_filler {
      type: "constant"
      value: 0
    }
  }
}
layers {
  bottom: "conv1"
  top: "conv1"
  name: "relu1"
  type: RELU
}
layers {
  bottom: "conv1"
  top: "pool1"
  name: "pool1"
  type: POOLING
  pooling_param {
    pool: MAX
    kernel_size: 3
    stride: 2
  }
}
layers {
  bottom: "pool1"
  top: "norm1"
  name: "norm1"
  type: LRN
  lrn_param {
    local_size: 5
    alpha: 0.0001
    beta: 0.75
  }
}
layers {
  bottom: "norm1"
  top: "conv2"
  name: "conv2"
  type: CONVOLUTION
  blobs_lr: 0
  blobs_lr: 0
  weight_decay: 0
  weight_decay: 0
  convolution_param {
    num_output: 256
    pad: 2
    kernel_size: 5
    group: 2
    weight_filler {
      type: "gaussian"
      std: 0.01
    }
    bias_filler {
      type: "constant"
      value: 1
    }
  }
}
layers {
  bottom: "conv2"
  top: "conv2"
  name: "relu2"
  type: RELU
}
layers {
  bottom: "conv2"
  top: "pool2"
  name: "pool2"
  type: POOLING
  pooling_param {
    pool: MAX
    kernel_size: 3
    stride: 2
  }
}
layers {
  bottom: "pool2"
  top: "norm2"
  name: "norm2"
  type: LRN
  lrn_param {
    local_size: 5
    alpha: 0.0001
    beta: 0.75
  }
}
layers {
  bottom: "norm2"
  top: "conv3"
  name: "conv3"
  type: CONVOLUTION
  blobs_lr: 0
  blobs_lr: 0
  weight_decay: 0
  weight_decay: 0
  convolution_param {
    num_output: 384
    pad: 1
    kernel_size: 3
    weight_filler {
      type: "gaussian"
      std: 0.01
    }
    bias_filler {
      type: "constant"
      value: 0
    }
  }
}
layers {
  bottom: "conv3"
  top: "conv3"
  name: "relu3"
  type: RELU
}
layers {
  bottom: "conv3"
  top: "conv4"
  name: "conv4"
  type: CONVOLUTION
  blobs_lr: 0
  blobs_lr: 0
  weight_decay: 0
  weight_decay: 0
  convolution_param {
    num_output: 384
    pad: 1
    kernel_size: 3
    group: 2
    weight_filler {
      type: "gaussian"
      std: 0.01
    }
    bias_filler {
      type: "constant"
      value: 1
    }
  }
}
layers {
  bottom: "conv4"
  top: "conv4"
  name: "relu4"
  type: RELU
}
layers {
  bottom: "conv4"
  top: "conv5"
  name: "conv5"
  type: CONVOLUTION
  blobs_lr: 0
  blobs_lr: 0
  weight_decay: 0
  weight_decay: 0
  convolution_param {
    num_output: 256
    pad: 1
    kernel_size: 3
    group: 2
    weight_filler {
      type: "gaussian"
      std: 0.01
    }
    bias_filler {
      type: "constant"
      value: 1
    }
  }
}
layers {
  bottom: "conv5"
  top: "conv5"
  name: "relu5"
  type: RELU
}
layers {
  bottom: "conv5"
  top: "pool5"
  name: "pool5"
  type: POOLING
  pooling_param {
    pool: MAX
    kernel_size: 3
    stride: 2
  }
}
layers {
  bottom: "pool5"
  top: "fc6"
  name: "fc6"
  type: INNER_PRODUCT
  blobs_lr: 0
  blobs_lr: 0
  weight_decay: 0
  weight_decay: 0
  inner_product_param {
    num_output: 4096
    weight_filler {
      type: "gaussian"
      std: 0.005
    }
    bias_filler {
      type: "constant"
      value: 1
    }
  }
}
layers {
  bottom: "fc6"
  top: "fc6"
  name: "relu6"
  type: RELU
}
layers {
  bottom: "fc6"
  top: "fc6"
  name: "drop6"
  type: DROPOUT
  dropout_param {
    dropout_ratio: 0.5
  }
}
layers {
  bottom: "fc6"
  top: "fc7"
  name: "fc7"
  type: INNER_PRODUCT
  blobs_lr: 0
  blobs_lr: 0
  weight_decay: 0
  weight_decay: 0
  inner_product_param {
    num_output: 4096
    weight_filler {
      type: "gaussian"
      std: 0.005
    }
    bias_filler {
      type: "constant"
      value: 1
    }
  }
}
layers {
  bottom: "fc7"
  top: "fc7"
  name: "relu7"
  type: RELU
}
layers {
  bottom: "fc7"
  top: "fc7"
  name: "drop7"
  type: DROPOUT
  dropout_param {
    dropout_ratio: 0.5
  }
}
layers {
  bottom: "fc7"
  top: "fc8_clamp"
  name: "fc8_clamp"
  type: INNER_PRODUCT
  blobs_lr: 1
  blobs_lr: 2
  weight_decay: 1
  weight_decay: 0
  inner_product_param {
    num_output: 2
    weight_filler {
      type: "gaussian"
      std: 0.01
    }
    bias_filler {
      type: "constant"
      value: 0
    }
  }
}
layers {
  bottom: "fc8_clamp"
  bottom: "label"
  name: "loss"
  type: SOFTMAX_LOSS
}
layers {
  bottom: "fc8_clamp"
  bottom: "label"
  top: "accuracy"
  name: "accuracy"
  type: ACCURACY
  include {
    phase: TEST
  }
}
state {
  phase: TEST
}
I1015 02:19:05.557144 12329 net.cpp:67] Creating Layer data
I1015 02:19:05.557174 12329 net.cpp:356] data -> data
I1015 02:19:05.557188 12329 net.cpp:356] data -> label
I1015 02:19:05.557198 12329 net.cpp:96] Setting up data
I1015 02:19:05.557209 12329 image_data_layer.cpp:30] Opening file data/clamp/val.txt
I1015 02:19:05.558663 12329 image_data_layer.cpp:45] A total of 2006 images.
I1015 02:19:05.561240 12329 image_data_layer.cpp:73] output data size: 251,3,227,227
I1015 02:19:05.561262 12329 base_data_layer.cpp:36] Loading mean file from/homes/ad6813/data/controlpoint_mean_256-227.binaryproto
I1015 02:19:05.590052 12329 net.cpp:103] Top shape: 251 3 227 227 (38801337)
I1015 02:19:05.590085 12329 net.cpp:103] Top shape: 251 1 1 1 (251)
I1015 02:19:05.590101 12329 net.cpp:67] Creating Layer label_data_1_split
I1015 02:19:05.590107 12329 net.cpp:394] label_data_1_split <- label
I1015 02:19:05.590117 12329 net.cpp:356] label_data_1_split -> label_data_1_split_0
I1015 02:19:05.590131 12329 net.cpp:356] label_data_1_split -> label_data_1_split_1
I1015 02:19:05.590138 12329 net.cpp:96] Setting up label_data_1_split
I1015 02:19:05.590150 12329 net.cpp:103] Top shape: 251 1 1 1 (251)
I1015 02:19:05.590157 12329 net.cpp:103] Top shape: 251 1 1 1 (251)
I1015 02:19:05.590184 12329 net.cpp:67] Creating Layer conv1
I1015 02:19:05.590193 12329 net.cpp:394] conv1 <- data
I1015 02:19:05.590204 12329 net.cpp:356] conv1 -> conv1
I1015 02:19:05.590214 12329 net.cpp:96] Setting up conv1
I1015 02:19:05.591629 12329 net.cpp:103] Top shape: 251 96 55 55 (72890400)
I1015 02:19:05.591652 12329 net.cpp:67] Creating Layer relu1
I1015 02:19:05.591658 12329 net.cpp:394] relu1 <- conv1
I1015 02:19:05.591665 12329 net.cpp:345] relu1 -> conv1 (in-place)
I1015 02:19:05.591672 12329 net.cpp:96] Setting up relu1
I1015 02:19:05.591677 12329 net.cpp:103] Top shape: 251 96 55 55 (72890400)
I1015 02:19:05.591686 12329 net.cpp:67] Creating Layer pool1
I1015 02:19:05.591691 12329 net.cpp:394] pool1 <- conv1
I1015 02:19:05.591697 12329 net.cpp:356] pool1 -> pool1
I1015 02:19:05.591704 12329 net.cpp:96] Setting up pool1
I1015 02:19:05.591712 12329 net.cpp:103] Top shape: 251 96 27 27 (17565984)
I1015 02:19:05.591719 12329 net.cpp:67] Creating Layer norm1
I1015 02:19:05.591724 12329 net.cpp:394] norm1 <- pool1
I1015 02:19:05.591730 12329 net.cpp:356] norm1 -> norm1
I1015 02:19:05.591737 12329 net.cpp:96] Setting up norm1
I1015 02:19:05.591752 12329 net.cpp:103] Top shape: 251 96 27 27 (17565984)
I1015 02:19:05.591759 12329 net.cpp:67] Creating Layer conv2
I1015 02:19:05.591764 12329 net.cpp:394] conv2 <- norm1
I1015 02:19:05.591771 12329 net.cpp:356] conv2 -> conv2
I1015 02:19:05.591779 12329 net.cpp:96] Setting up conv2
I1015 02:19:05.603852 12329 net.cpp:103] Top shape: 251 256 27 27 (46842624)
I1015 02:19:05.603875 12329 net.cpp:67] Creating Layer relu2
I1015 02:19:05.603881 12329 net.cpp:394] relu2 <- conv2
I1015 02:19:05.603890 12329 net.cpp:345] relu2 -> conv2 (in-place)
I1015 02:19:05.603898 12329 net.cpp:96] Setting up relu2
I1015 02:19:05.603903 12329 net.cpp:103] Top shape: 251 256 27 27 (46842624)
I1015 02:19:05.603910 12329 net.cpp:67] Creating Layer pool2
I1015 02:19:05.603915 12329 net.cpp:394] pool2 <- conv2
I1015 02:19:05.603921 12329 net.cpp:356] pool2 -> pool2
I1015 02:19:05.603929 12329 net.cpp:96] Setting up pool2
I1015 02:19:05.603936 12329 net.cpp:103] Top shape: 251 256 13 13 (10859264)
I1015 02:19:05.603946 12329 net.cpp:67] Creating Layer norm2
I1015 02:19:05.603951 12329 net.cpp:394] norm2 <- pool2
I1015 02:19:05.603957 12329 net.cpp:356] norm2 -> norm2
I1015 02:19:05.603966 12329 net.cpp:96] Setting up norm2
I1015 02:19:05.603972 12329 net.cpp:103] Top shape: 251 256 13 13 (10859264)
I1015 02:19:05.603998 12329 net.cpp:67] Creating Layer conv3
I1015 02:19:05.604003 12329 net.cpp:394] conv3 <- norm2
I1015 02:19:05.604010 12329 net.cpp:356] conv3 -> conv3
I1015 02:19:05.604018 12329 net.cpp:96] Setting up conv3
I1015 02:19:05.639263 12329 net.cpp:103] Top shape: 251 384 13 13 (16288896)
I1015 02:19:05.639307 12329 net.cpp:67] Creating Layer relu3
I1015 02:19:05.639313 12329 net.cpp:394] relu3 <- conv3
I1015 02:19:05.639323 12329 net.cpp:345] relu3 -> conv3 (in-place)
I1015 02:19:05.639333 12329 net.cpp:96] Setting up relu3
I1015 02:19:05.639339 12329 net.cpp:103] Top shape: 251 384 13 13 (16288896)
I1015 02:19:05.639348 12329 net.cpp:67] Creating Layer conv4
I1015 02:19:05.639353 12329 net.cpp:394] conv4 <- conv3
I1015 02:19:05.639363 12329 net.cpp:356] conv4 -> conv4
I1015 02:19:05.639371 12329 net.cpp:96] Setting up conv4
I1015 02:19:05.665436 12329 net.cpp:103] Top shape: 251 384 13 13 (16288896)
I1015 02:19:05.665472 12329 net.cpp:67] Creating Layer relu4
I1015 02:19:05.665478 12329 net.cpp:394] relu4 <- conv4
I1015 02:19:05.665488 12329 net.cpp:345] relu4 -> conv4 (in-place)
I1015 02:19:05.665498 12329 net.cpp:96] Setting up relu4
I1015 02:19:05.665504 12329 net.cpp:103] Top shape: 251 384 13 13 (16288896)
I1015 02:19:05.665513 12329 net.cpp:67] Creating Layer conv5
I1015 02:19:05.665518 12329 net.cpp:394] conv5 <- conv4
I1015 02:19:05.665525 12329 net.cpp:356] conv5 -> conv5
I1015 02:19:05.665534 12329 net.cpp:96] Setting up conv5
I1015 02:19:05.683173 12329 net.cpp:103] Top shape: 251 256 13 13 (10859264)
I1015 02:19:05.683202 12329 net.cpp:67] Creating Layer relu5
I1015 02:19:05.683208 12329 net.cpp:394] relu5 <- conv5
I1015 02:19:05.683215 12329 net.cpp:345] relu5 -> conv5 (in-place)
I1015 02:19:05.683223 12329 net.cpp:96] Setting up relu5
I1015 02:19:05.683228 12329 net.cpp:103] Top shape: 251 256 13 13 (10859264)
I1015 02:19:05.683241 12329 net.cpp:67] Creating Layer pool5
I1015 02:19:05.683246 12329 net.cpp:394] pool5 <- conv5
I1015 02:19:05.683254 12329 net.cpp:356] pool5 -> pool5
I1015 02:19:05.683260 12329 net.cpp:96] Setting up pool5
I1015 02:19:05.683269 12329 net.cpp:103] Top shape: 251 256 6 6 (2313216)
I1015 02:19:05.683279 12329 net.cpp:67] Creating Layer fc6
I1015 02:19:05.683284 12329 net.cpp:394] fc6 <- pool5
I1015 02:19:05.683290 12329 net.cpp:356] fc6 -> fc6
I1015 02:19:05.683298 12329 net.cpp:96] Setting up fc6
I1015 02:19:07.154917 12329 net.cpp:103] Top shape: 251 4096 1 1 (1028096)
I1015 02:19:07.154959 12329 net.cpp:67] Creating Layer relu6
I1015 02:19:07.154968 12329 net.cpp:394] relu6 <- fc6
I1015 02:19:07.154978 12329 net.cpp:345] relu6 -> fc6 (in-place)
I1015 02:19:07.154989 12329 net.cpp:96] Setting up relu6
I1015 02:19:07.154994 12329 net.cpp:103] Top shape: 251 4096 1 1 (1028096)
I1015 02:19:07.155002 12329 net.cpp:67] Creating Layer drop6
I1015 02:19:07.155006 12329 net.cpp:394] drop6 <- fc6
I1015 02:19:07.155012 12329 net.cpp:345] drop6 -> fc6 (in-place)
I1015 02:19:07.155019 12329 net.cpp:96] Setting up drop6
I1015 02:19:07.155025 12329 net.cpp:103] Top shape: 251 4096 1 1 (1028096)
I1015 02:19:07.155035 12329 net.cpp:67] Creating Layer fc7
I1015 02:19:07.155038 12329 net.cpp:394] fc7 <- fc6
I1015 02:19:07.155048 12329 net.cpp:356] fc7 -> fc7
I1015 02:19:07.155057 12329 net.cpp:96] Setting up fc7
I1015 02:19:07.808240 12329 net.cpp:103] Top shape: 251 4096 1 1 (1028096)
I1015 02:19:07.808282 12329 net.cpp:67] Creating Layer relu7
I1015 02:19:07.808290 12329 net.cpp:394] relu7 <- fc7
I1015 02:19:07.808297 12329 net.cpp:345] relu7 -> fc7 (in-place)
I1015 02:19:07.808307 12329 net.cpp:96] Setting up relu7
I1015 02:19:07.808312 12329 net.cpp:103] Top shape: 251 4096 1 1 (1028096)
I1015 02:19:07.808329 12329 net.cpp:67] Creating Layer drop7
I1015 02:19:07.808336 12329 net.cpp:394] drop7 <- fc7
I1015 02:19:07.808342 12329 net.cpp:345] drop7 -> fc7 (in-place)
I1015 02:19:07.808349 12329 net.cpp:96] Setting up drop7
I1015 02:19:07.808356 12329 net.cpp:103] Top shape: 251 4096 1 1 (1028096)
I1015 02:19:07.808363 12329 net.cpp:67] Creating Layer fc8_clamp
I1015 02:19:07.808379 12329 net.cpp:394] fc8_clamp <- fc7
I1015 02:19:07.808389 12329 net.cpp:356] fc8_clamp -> fc8_clamp
I1015 02:19:07.808403 12329 net.cpp:96] Setting up fc8_clamp
I1015 02:19:07.808753 12329 net.cpp:103] Top shape: 251 2 1 1 (502)
I1015 02:19:07.808768 12329 net.cpp:67] Creating Layer fc8_clamp_fc8_clamp_0_split
I1015 02:19:07.808773 12329 net.cpp:394] fc8_clamp_fc8_clamp_0_split <- fc8_clamp
I1015 02:19:07.808783 12329 net.cpp:356] fc8_clamp_fc8_clamp_0_split -> fc8_clamp_fc8_clamp_0_split_0
I1015 02:19:07.808791 12329 net.cpp:356] fc8_clamp_fc8_clamp_0_split -> fc8_clamp_fc8_clamp_0_split_1
I1015 02:19:07.808799 12329 net.cpp:96] Setting up fc8_clamp_fc8_clamp_0_split
I1015 02:19:07.808806 12329 net.cpp:103] Top shape: 251 2 1 1 (502)
I1015 02:19:07.808810 12329 net.cpp:103] Top shape: 251 2 1 1 (502)
I1015 02:19:07.808817 12329 net.cpp:67] Creating Layer loss
I1015 02:19:07.808822 12329 net.cpp:394] loss <- fc8_clamp_fc8_clamp_0_split_0
I1015 02:19:07.808828 12329 net.cpp:394] loss <- label_data_1_split_0
I1015 02:19:07.808836 12329 net.cpp:356] loss -> (automatic)
I1015 02:19:07.808843 12329 net.cpp:96] Setting up loss
I1015 02:19:07.808852 12329 net.cpp:103] Top shape: 1 1 1 1 (1)
I1015 02:19:07.808857 12329 net.cpp:109]     with loss weight 1
I1015 02:19:07.808876 12329 net.cpp:67] Creating Layer accuracy
I1015 02:19:07.808881 12329 net.cpp:394] accuracy <- fc8_clamp_fc8_clamp_0_split_1
I1015 02:19:07.808887 12329 net.cpp:394] accuracy <- label_data_1_split_1
I1015 02:19:07.808899 12329 net.cpp:356] accuracy -> accuracy
I1015 02:19:07.808920 12329 net.cpp:96] Setting up accuracy
I1015 02:19:07.808933 12329 net.cpp:103] Top shape: 1 1 1 1 (1)
I1015 02:19:07.808944 12329 net.cpp:172] accuracy does not need backward computation.
I1015 02:19:07.808948 12329 net.cpp:170] loss needs backward computation.
I1015 02:19:07.808954 12329 net.cpp:170] fc8_clamp_fc8_clamp_0_split needs backward computation.
I1015 02:19:07.808959 12329 net.cpp:170] fc8_clamp needs backward computation.
I1015 02:19:07.809002 12329 net.cpp:172] drop7 does not need backward computation.
…
